models/model_name_1.bin (torch, 272639 bytes, 6 tensors)

linear1.weight f4 [256, 4]
-0.86841124 -0.46806186 -0.5975024 -0.30319422 -0.55960804 -0.4704731 -1.3005586 -1.0713707
-1.0932285 -1.4944662 -1.4861633 -0.9538654 -0.21449727 -1.3748897 -0.18127716 -1.6165197
-0.122544646 -0.14181003 -0.33388287 -0.41791862 -0.36122036 -0.35167646 -1.0102292 -0.29072857
-0.015496075 -0.2544406 -0.3711838 0.06462616 -0.32353473 -1.6393585 -1.6418693 -0.88034123
-0.018779159 -1.8292301 -1.3994032 -0.98871315 -0.7466401 -0.82060087 -1.1322813 0.50279975
-0.3748358 -0.8341495 -0.39519387 -0.06406301 -0.558367 -0.5167677 -0.8820292 0.035564136
-0.65505594 0.0060826666 -1.4562461 0.42219839 -0.67033756 -0.949543 -0.5558559 -0.73572844
-0.08296052 -0.9663097 -1.0741718 0.42143556 -3.623828 -1.6753098 -2.5403085 -0.5466448
-0.44567496 -0.32979715 -0.45962328 -0.10945171 -0.48310572 -0.110838346 -0.86823493 0.08792297
-1.583177 -1.3238913 -0.66196567 -2.238993 -1.4004395 -2.3025465 -1.9523263 -2.2980707
-0.5806775 -1.0275162 -0.55105215 -0.25961375 -0.13851857 -0.40002307 -0.3869798 -0.15916896
-0.95013195 -0.72867024 -1.0120747 -0.43395957 -7.2646976 8.170365 -6.0735064 3.6699748
-0.40125135 -0.9375342 -0.96512043 0.9002245 -0.4618566 -2.207513 -0.8421998 0.61573607
-0.029690206 -0.27509573 -0.74944013 -0.4220168 -0.23418953 -0.113854945 -0.87689614 -1.0300225
-0.41983312 -1.6480895 -1.1810569 -1.0107967 0.7764032 -4.9861684 -0.5670573 -5.911766
-0.45598838 -1.6399072 -1.6395849 -0.8168443 -0.4122955 0.06453555 -1.6538981 0.19646612
-0.29396284 -0.21018425 -0.5620965 -0.5552846 -0.08305079 -1.2329607 -0.46173716 -1.483067
-0.37062913 -0.16326594 -0.676729 0.037029315 -0.48848504 -0.48681778 -0.7336254 -0.33337897
-0.42755857 -0.23381406 -1.4521724 0.30388057 0.4479421 -0.39959952 -2.214914 4.34054
-0.2976966 -0.06530869 -0.44342995 -0.29066128 -0.68598574 -0.40726134 -0.42679265 -0.101159215
-0.12120991 -0.22475119 -1.2425405 0.40064666 -1.3286456 -2.2813394 -2.494253 -1.8008845
-0.22484726 0.06005927 -0.77078193 -0.7317756 0.43534938 -0.63809276 -2.294787 4.380764
-0.38623708 -0.34240723 -0.45695573 -0.3925342 -0.6995443 -0.829745 -0.32721126 -0.6701289
-1.7872446 -0.072038054 -2.0430954 -0.2876743 -0.27192014 -0.4410127 -0.86689633 -0.012928058
-0.4166227 -0.041066527 -0.73195773 -0.46532276 -0.33481663 -0.18070607 -0.8356664 -0.5871697
-0.3998016 -0.39533967 -0.3664483 -0.43348444 -0.05648404 -2.597838 -2.9616537 3.0565875
-0.34578323 -0.23353052 -0.69512486 -0.36747107 -0.112641215 -1.6744804 -1.8592229 -0.809163
-0.7635956 0.100833535 -1.4080497 0.3226166 -0.11595937 -0.02000112 -1.1827167 -0.005784416
-0.47825414 -0.36869693 -0.3915868 0.10920918 -0.45585257 -0.2880035 -0.7455718 -0.35163838
-0.5156398 -0.44348997 -1.2160217 -1.2740402 0.008459151 -0.09448091 -1.3096477 -0.23416018
-1.8137101 -0.5888314 -0.40133703 -2.119081 0.92496294 1.6420988 -2.9144766 1.1627076
-0.5521397 -0.80114794 -0.7221497 -0.62230694 -0.3744436 -1.2311538 -1.320831 -0.8821572
00000000: 3350 5ebf cea5 efbe ebf5 18bf 463c 9bbe
00000010: 7942 0fbf dae1 f0be b478 a6bf ad22 89bf
00000020: e9ee 8bbf ab4a bfbf 993a bebf 8630 74bf
00000030: 2ca5 5bbe 63fc afbf b8a0 39be 1eea cebf
00000040: b0f8 fabd a636 11be b2f2 aabe 6ef9 d5be
00000050: e0f1 b8be f00e b4be 314f 81bf 60da 94be
00000060: 40e3 7dbc 0a46 82be ce0b bebe b85a 843d
00000070: 58a6 a5be 80d6 d1bf c628 d2bf 0b5e 61bf
00000080: c0d6 99bc 3624 eabf a51f b3bf 4e1c 7dbf
00000090: ce23 3fbf e612 52bf 98ee 90bf 7cb7 003f
000000a0: 7aea bfbe d28a 55bf da56 cabe 7833 83bd
000000b0: 24f1 0ebf e34a 04bf aacc 61bf b3ab 113d
000000c0: bfb1 27bf 1b51 c73b 4666 babf 632a d83e
000000d0: 3e9b 2bbf 4015 73bf 924c 0ebf b358 3cbf
000000e0: 35e7 a9bd 1360 77bf 767e 89bf 67c6 d73e
000000f0: ccec 67c0 8d70 d6bf 6a94 22c0 eaf0 0bbf
00000100: 822f e4be 2cdb a8be be53 ebbe 3828 e0bd
00000110: a259 f7be 37ff e2bd a544 5ebf f510 b43d
00000120: 8ba5 cabf 4575 a9bf 9576 29bf a94b 0fc0
00000130: 9a41 b3bf ec5c 13c0 d4e5 f9bf 9713 13c0
00000140: 48a7 14bf a785 83bf c111 0dbf 18ec 84be
00000150: d0d7 0dbe d3cf ccbe 3722 c6be 30fd 22be
00000160: d93b 73bf 228a 3abf aa8b 81bf f32f debe
00000170: 6778 e8c0 d1b9 0241 2a5a c2c0 dee0 6a40
00000180: d170 cdbe 3e02 70bf 2212 77bf 1d75 663f
00000190: 7878 ecbe e547 0dc0 689a 57bf e1a0 1d3f
000001a0: e038 f3bc 59d9 8cbe 4fdb 3fbf 9612 d8be
000001b0: 61cf 6fbe c82c e9bd 447c 60bf c7d7 83bf
000001c0: 5ef4 d6be 99f4 d2bf df2c 97bf c961 81bf
000001d0: 5cc2 463f b18e 9fc0 ab2a 11bf 302d bdc0
000001e0: 4f77 e9be 7be8 d1bf ebdd d1bf b51c 51bf
000001f0: 6518 d3be 372b 843d efb2 d3bf 6a2e 493e
00000200: 4c82 96be 8a3a 57be 8ee5 0fbf 2227 0ebf
00000210: 8816 aabd a8d1 9dbf d068 ecbe 24d5 bdbf
00000220: 1ac3 bdbe 302f 27be 1d3e 2dbf 0dac 173d
00000230: b61a fabe 2e40 f9be e0ce 3bbf a6b0 aabe
00000240: f5e8 dabe f46c 6fbe c9e0 b9bf 3c96 9b3e
00000250: ab58 e53e 4f98 ccbe 27c1 0dc0 b4e5 8a40
00000260: b06b 98be 90c0 85bd 4009 e3be 8ed1 94be
00000270: c39c 2fbf 8f84 d0be 9184 dabe 902c cfbd
00000280: e73c f8bd 2d25 66be 910b 9fbf 8f21 cd3e
00000290: 0f11 aabf 7701 12c0 d7a1 1fc0 6283 e6bf
000002a0: 5c3e 66be b600 763d f751 45bf a555 3bbf
000002b0: 1de6 de3e 0c5a 23bf cadd 12c0 382f 8c40
000002c0: dec0 c5be 0050 afbe 1af6 e9be 3efa c8be
000002d0: 5615 33bf 2b6a 54bf 3c88 a7be 918d 2bbf
000002e0: 6ec4 e4bf b088 93bd 13c2 02c0 0c4a 93be
000002f0: 1e39 8bbe 6bcc e1be ebec 5dbf 35d0 53bc
00000300: 924f d5be 6035 28bd 9561 3bbf c93e eebe
00000310: 166d abbe 030b 39be 3cee 55bf c150 16bf
00000320: ccb2 ccbe f669 cabe 1d9f bbbe acf1 ddbe
00000330: cf5b 67bd fa42 26c0 bc8b 3dc0 219f 4340
00000340: 800a b1be a022 6fbe b4f3 31bf 2b25 bcbe
00000350: 70b0 e6bd 6055 d6bf 04fb edbf 4e25 4fbf
00000360: 007b 43bf d081 ce3d f93a b4bf 012e a53e
00000370: 1b7c edbd 64d9 a3bc 4363 97bf 338b bdbb
00000380: badd f4be d8c5 bcbe 117e c8be 10a9 df3d
00000390: 8265 e9be 3275 93be cbdd 3ebf f209 b4be
000003a0: f800 04bf 1e11 e3be 99a6 9bbf c013 a3bf
000003b0: 4098 0a3c 357f c1bd 89a2 a7bf b0c7 6fbe
000003c0: a727 e8bf a8bd 16bf 0c7c cdbe 069f 07c0
000003d0: 5fca 6c3f 4b30 d23f c986 3ac0 9ad3 943f
000003e0: 0759 0dbf 0818 4dbf cede 38bf 824f 1fbf
000003f0: 12b7 bfbe 7396 9dbf fd10 a9bf 0ed5 61bf

linear1.bias f4 [256]
-1.0932539 -1.2237489 -2.0129397 -1.6037185 -1.0137703 -0.8849715 -0.61189634 -1.2989516
-1.3441328 -9.279149 -0.27352887 -0.87079746 -8.629172 -1.8887749 -10.688581 -3.3045647
-0.94171953 -0.7274449 -2.4432921 -2.2122808 -1.6691282 -0.5967505 -2.2287018 18.865034
-9.2538805 -10.106027 -0.8816362 -0.35329878 -1.6878145 6.3083467 -1.4858785 -8.678581
-1.4107548 -1.8291196 -0.6387339 -0.64452326 -9.491352 -14.207219 -0.40822113 -0.37234786
-4.8647103 -2.305243 -1.5201874 -13.38726 -0.36353642 -1.0673842 -2.2146335 -0.5132756
-0.51050717 -0.68135047 -0.95728576 -1.0844102 -0.96175027 -2.3414745 -8.369133 -0.89375335
-0.53806937 -0.18860842 -1.2471523 -0.69698477 -2.53307 -5.281983 -0.31098548 -2.1306522
-0.68611 -0.6545969 -0.91463333 -0.6983217 -0.6044602 -1.9576635 -2.0320446 -0.94448406
-0.80848855 -0.39656085 -1.1740531 -1.0399741 -10.162401 -10.180126 -1.9764857 -0.30055296
-0.42683706 -9.823482 -1.1066983 -2.223732 -1.3521053 0.32992515 -10.819229 -8.380072
-1.0581121 -0.48811585 -0.44731623 -0.58432704 -1.0375267 -0.1638397 -0.6849873 -1.3573463
-2.1162548 -8.841782 -1.0265815 -0.9848842 -0.7558521 -0.39442185 -1.9858961 -1.3394438
-0.5979186 -0.907787 -0.83512896 -1.9660801 -9.860529 -9.564031 -0.5383931 -9.877804
-0.93102807 -1.009076 -16.050207 -0.9800153 -0.79560584 -0.7137442 -0.45886686 -9.273971
-0.610239 -0.5751035 -2.549361 -0.06562531 -1.0096813 -0.46058992 -8.828135 -0.7528931
-0.2271496 -1.2258364 -0.7730176 -1.0862793 -12.239575 -1.4500334 -1.1552575 -0.9075412
-5.2044945 -1.5242717 -1.2884566 -1.2248005 -0.50558025 -9.775952 -0.7564732 -0.82859445
-0.34840268 -0.20100355 -0.5260631 -1.2684647 -0.4088569 -13.005015 -0.22827196 -0.892759
-1.0321211 -0.2685295 -8.586538 -1.4579365 -8.883097 -0.89019424 -10.646261 -0.22239499
-2.9788163 -0.43520427 -1.7905248 -1.2501575 -0.4685765 -1.6547679 -2.8733983 -0.47719938
-1.1973653 -0.8480355 -0.26905203 -10.257211 -0.60150564 -0.15289256 -1.530437 -0.1426379
-14.364342 -4.829596 -0.74004483 -11.313829 -0.41284132 -1.4095963 -1.1028376 -1.4562821
-1.2319677 -0.17235158 -1.7202642 -0.8038445 -0.24426503 -1.1524434 -0.26818284 -1.0106236
-0.1532619 -6.866689 -0.75313336 -0.6702066 -0.523712 -9.208335 -0.26821822 -1.057478
7.4346037 -8.032677 -0.4128825 -0.2683669 -9.159385 -2.0588987 -2.3420172 -0.32094157
-0.9204295 -0.8016601 3.4917758 -0.23144972 -1.9843962 1.2039089 -1.3355725 -1.257042
-9.532799 -0.8160089 -0.71755546 -1.6876304 -9.609305 -0.8673835 0.056623667 -1.8299155
-1.1217674 -0.56373125 -0.7950537 -7.990592 -0.22634813 -10.538652 2.7055895 -10.850108
-0.9166439 -1.7955668 -0.59325254 -10.080745 -0.8500347 -4.470148 -0.6684195 -1.1910018
-0.42592394 -0.97230047 -0.9926015 -1.1461445 -0.5292946 -0.7510243 -0.28355038 -0.21405488
3.149621 -0.39054853 -8.895451 -0.21637045 10.370413 -10.27857 -1.1644909 -9.58557
00000000: beef 8bbf cea3 9cbf 01d4 00c0 a646 cdbf
00000010: 3ac3 81bf 7e8d 62bf 3da5 1cbf 0c44 a6bf
00000020: 8b0c acbf 6577 14c1 fa0b 8cbe 95ec 5ebf
00000030: 1711 0ac1 60c3 f1bf 6e04 2bc1 fd7d 53c0
00000040: 8814 71bf d439 3abf e65e 1cc0 0296 0dc0
00000050: fea5 d5bf a4c4 18bf 0da3 0ec0 97eb 9641
00000060: e50f 14c1 49b2 21c1 e9b2 61bf 94e3 b4be
00000070: 4e0a d8bf fadd c940 4431 bebf 78db 0ac1
00000080: 9d93 b4bf 9720 eabf 1184 23bf 7aff 24bf
00000090: 94dc 17c1 c550 63c1 5c02 d1be 61a4 bebe
000000a0: b5ab 9bc0 1a89 13c0 8095 c2bf 3832 56c1
000000b0: 7221 babe 0ca0 88bf 8ebc 0dc0 0866 03bf
000000c0: 99b0 02bf fc6c 2ebf ae10 75bf f4cd 8abf
000000d0: 4435 76bf b8da 15c0 f8e7 05c1 05cd 64bf
000000e0: eabe 09bf 9122 41be b0a2 9fbf 986d 32bf
000000f0: d21d 22c0 0106 a9c0 7d39 9fbe 9b5c 08c0
00000100: e8a4 2fbf aa93 27bf 6925 6abf 36c5 32bf
00000110: e7bd 1abf b894 fabf 050d 02c0 b5c9 71bf
00000120: 1bf9 4ebf 060a cbbe 5f47 96bf df1d 85bf
00000130: 3299 22c1 cce1 22c1 7cfd fcbf 14e2 99be
00000140: 638a dabe fb2c 1dc1 4aa8 8dbf a051 0ec0
00000150: c911 adbf f3eb a83e 901b 2dc1 c614 06c1
00000160: 3870 87bf 52ea f9be a206 e5be 7596 15bf
00000170: adcd 84bf 98c5 27be 545b 2fbf 86bd adbf
00000180: b870 07c0 f077 0dc1 0667 83bf 5f21 7cbf
00000190: 867f 41bf a9f1 c9be d831 febf e572 abbf
000001a0: 3211 19bf bb64 68bf 03cb 55bf 83a8 fbbf
000001b0: bac4 1dc1 4506 19c1 21d4 09bf 7c0b 1ec1
000001c0: db57 6ebf 6729 81bf d366 80c1 48e2 7abf
000001d0: d3ac 4bbf f1b7 36bf 99f0 eabe 2f62 14c1
000001e0: a038 1cbf fc39 13bf bb28 23c0 9066 86bd
000001f0: 3d3d 81bf 71d2 ebbe 0a40 0dc1 9abd 40bf
00000200: e899 68be 35e8 9cbf 7be4 45bf 330b 8bbf
00000210: 4dd5 43c1 b29a b9bf 7adf 93bf 9f54 68bf
00000220: 388b a6c0 561b c3bf 25ec a4bf 43c6 9cbf
00000230: b56d 01bf 4d6a 1cc1 3aa8 41bf c41e 54bf
00000240: d661 b2be e0d3 4dbe 12ac 06bf 0d5d a2bf
00000250: b155 d1be 8b14 50c1 20c0 69be db8b 64bf
00000260: 8b1c 84bf b37c 89be 7662 09c1 aa9d babf
00000270: 2a21 0ec1 c5e3 63bf 1657 2ac1 83bb 63be
00000280: eda4 3ec0 18d3 debe eb2f e5bf 2905 a0bf
00000290: 42e9 efbe 6fcf d3bf c2e5 37c0 7a53 f4be
000002a0: 4443 99bf db18 59bf 30c1 89be 891d 24c1
000002b0: 46fc 19bf de8f 1cbe 5ce5 c3bf ab0f 12be
000002c0: 58d4 65c1 0d8c 9ac0 9473 3dbf 7205 35c1
000002d0: f05f d3be a76d b4bf c829 8dbf 7467 babf
000002e0: 1eb1 9dbf ef7c 30be 9e31 dcbf c1c8 4dbf
000002f0: 9d20 7abe 4483 93bf 434f 89be 1d5c 81bf
00000300: b0f0 1cbe ebbb dbc0 59cd 40bf a992 2bbf
00000310: fd11 06bf 5755 13c1 e653 89be 705b 87bf
00000320: 46e8 ed40 d885 00c1 5665 d3be 6367 89be
00000330: d78c 12c1 ffc4 03c0 9ce3 15c0 7452 a4be
00000340: 45a1 6bbf 9939 4dbf 4179 5f40 2801 6dbe
00000350: b200 febf b019 9a3f 0af4 aabf c1e6 a0bf
00000360: 5886 18c1 f6e5 50bf b7b1 37bf 4604 d8bf
00000370: b7bf 19c1 d80c 5ebf 38ee 673d ac3a eabf
00000380: 1396 8fbf b150 10bf a488 4bbf eeb2 ffc0
00000390: cec7 67be 529e 28c1 6128 2d40 0b9a 2dc1
000003a0: 2da9 6abf 22d5 e5bf 66df 17bf bb4a 21c1
000003b0: e09b 59bf 740b 8fc0 8a1d 2bbf bf72 98bf
000003c0: b412 dabe afe8 78bf 221b 7ebf ddb4 92bf
000003d0: da7f 07bf 2143 40bf 842d 91be 3431 5bbe
000003e0: 6493 4940 faf5 c7be c453 0ec1 3790 5dbe
000003f0: 36ed 2541 0675 24c1 0a0e 95bf 7f5e 19c1

linear2.weight f4 [256, 256]
0.04588776 -0.46393314 0.010979027 0.043169677 -0.0063613504 -0.032279514 -0.038388737 -0.40279397
-0.45019773 -0.007211618 -0.5272123 -0.44457734 -0.4982267 -0.021248907 0.03107471 -0.5159982
-0.05667688 0.057839237 0.062354267 -0.1650143 -0.40106806 0.046452567 -0.030182138 -0.5516923
-0.41009012 -0.542237 0.003912747 -0.5058052 -0.3135143 -0.48188353 -0.5575632 -0.04557816
-0.057417482 -0.35746282 -0.37721536 -0.4741796 0.015724964 -0.030671284 0.033079736 -0.44273984
-0.3989448 0.056066565 -0.009485863 0.027346484 -0.3355089 -0.03644301 0.029986307 -0.5637718
-0.3903309 -0.48044702 -0.032861702 -0.39556226 0.015878983 -0.042669617 0.039704412 -0.0060221776
-0.37073946 -0.48920134 -0.023489915 -0.48989472 0.008603245 -0.053446457 -0.51275647 0.03604102
0.025832064 -0.48146448 -0.036852613 -0.011109747 -0.02534762 -0.03602059 0.04089214 0.035695553
0.057314858 0.022705868 -0.309915 0.030038945 0.052399255 -0.012981445 0.04468981 -0.5158725
-0.22773291 -0.2975307 0.02572368 -0.4291535 0.013712708 -0.58411545 0.03578203 -0.49564564
-0.18351261 -0.46452147 -0.005396694 -0.53957963 -0.41585058 -0.021387026 0.0073584095 -0.253891
-0.036322437 -0.013045341 0.020873047 -0.055136733 -0.5041033 -0.27225977 -0.3959526 -0.36045212
-0.42592448 -0.051316656 -0.038958773 -0.47997284 0.06226921 -0.025736623 -0.050122634 -0.26125106
-0.0494287 -0.13042022 -0.46688116 -0.06242007 0.029576644 0.01898355 -0.07901633 0.01523903
-0.49609834 -0.53039205 -0.4881658 0.037815593 -0.008593336 -0.1293223 -0.012777336 0.05511591
-0.01425755 0.056877986 -0.55871254 -0.04020343 -0.51520556 -0.5109833 -0.34106198 -0.48841608
-0.5057697 -0.53501564 -0.0030534938 -0.049828373 -0.40378612 -0.06143911 -0.5351992 0.057386577
0.017596312 -0.0063973367 -0.5176053 -0.44536713 -0.5368848 -0.050917193 0.0084619 0.003905639
0.030980386 -0.40570128 -0.061258122 -0.050298132 -0.42500415 0.04003346 0.058456838 -0.49798453
-0.012143783 -0.43405885 -0.43320802 0.016567796 -0.1312154 -0.29605365 0.052100107 0.03659924
-0.056779467 -0.022187337 -0.5335122 0.056137927 0.056089424 -0.5265527 -0.5392146 -0.5131952
-0.028892048 0.041066654 -0.049491778 -0.012400337 0.029963292 -0.46830073 -0.0092979595 -0.041645028
0.027751885 -0.4841955 0.007506028 -0.28880292 -0.5187714 -0.51160276 -0.5093936 -0.44624907
-0.05235082 -0.47480857 0.022405893 -0.31506464 -0.5135896 -0.03936544 -0.43824586 -0.053703547
-0.49739262 -0.45836523 -0.3154804 -0.4861757 -0.45038074 0.0025707856 -0.23337646 -0.5211742
0.053227402 0.054943137 -0.524018 -0.44147286 -0.42279574 -0.032200813 -0.47634718 -0.47946423
0.039989896 -0.044891484 -0.47039786 0.0494193 -0.026299909 0.044120073 -0.013942525 -0.4843982
-0.44299453 -0.43995553 -0.49797514 -0.5066978 -0.52887535 0.037128992 0.04410351 0.016468868
-0.4572197 0.061309367 -0.56471 -0.0608237 0.0066769496 -0.47026002 -0.54549825 -0.059645467
-0.5322367 0.030975595 0.038250454 -0.3334355 -0.045922138 0.010844968 -0.44717732 -0.4790308
-0.49463522 -0.061849825 0.00726714 -0.5443678 -0.5515624 -0.05741158 -0.24403526 0.021246292
00000000: cef4 3b3d a588 edbe 60e1 333c b0d2 303d
00000010: e072 d0bb 8637 04bd 823d 1dbd 033b cebe
00000020: 5180 e6be 704f ecbb 63f7 06bf a49f e3be
00000030: 9217 ffbe 3012 aebc 6490 fe3c 7518 04bf
00000040: 0426 68bd d6e8 6c3d 3067 7f3d 82f9 28be
00000050: cb58 cdbe 0c45 3e3d 8840 f7bc b53b 0dbf
00000060: 55f7 d1be 0bd0 0abf 8036 803b 737c 01bf
00000070: f284 a0be 70b9 f6be 76bc 0ebf 2ab0 3abd
00000080: 982e 6bbd 5e05 b7be 5f22 c1be abc7 f2be
00000090: a4d1 803c 5842 fbbc 9e7e 073d ccae e2be
000000a0: 7e42 ccbe 0ea6 653d 986a 1bbc bc05 e03c
000000b0: d3c7 abbe 4445 15bd d8a5 f53c 5953 10bf
000000c0: 74d9 c7be 27fd f5be fe99 06bd 2387 cabe
000000d0: a414 823c 56c6 2ebd 18a1 223d b055 c5bb
000000e0: 90d1 bdbe 9978 fabe ec6d c0bc 7bd3 fabe
000000f0: a0f4 0c3c acea 5abd 0244 03bf c09f 133d
00000100: c49d d33c 8382 f6be c4f2 16bd a805 36bc
00000110: d0a5 cfbc 548a 13bd 847e 273d 8035 123d
00000120: fcc2 6a3d a801 ba3c 2ead 9ebe 3c14 f63c
00000130: 9aa0 563d 20b0 54bc aa0c 373d 3810 04bf
00000140: d132 69be f255 98be 78ba d23c 02ba dbbe
00000150: 44ab 603c 9788 15bf 2e90 123d 44c5 fdbe
00000160: bbea 3bbe c2d5 edbe c0d6 b0bb e421 0abf
00000170: 5eea d4be d833 afbc d01e f13b 00fe 81be
00000180: d6c6 14bd 20bc 55bc f4fd aa3c 0ed7 61bd
00000190: ea0c 01bf a265 8bbe 4dba cabe 2e8d b8be
000001a0: c612 dabe 6a31 52bd 3c93 1fbd 00bf f5be
000001b0: 000e 7f3d 9cd5 d2bc 644d 4dbd b3c2 85be
000001c0: c075 4abd e18c 05be 0c0b efbe 30ac 7fbd
000001d0: b84a f23c 6483 9b3c 50d3 a1bd 20ad 793c
000001e0: 9a00 febe c6c7 07bf def0 f9be 86e4 1a3d
000001f0: 10cb 0cbc 116d 04be 0858 51bc 38c1 613d
00000200: 8098 69bc e4f8 683d c907 0fbf 5aac 24bd
00000210: 83e4 03bf cdcf 02bf ad9f aebe ac11 fabe
00000220: 207a 01bf c9f6 08bf 201d 48bb d618 4cbd
00000230: 0ebd cebe 94a7 7bbd d102 09bf 300e 6b3d
00000240: 2426 903c c0a0 d1bb c881 04bf 2907 e4be
00000250: 4871 09bf 8c8e 50bd c8a3 0a3c c0f5 7f3b
00000260: 94ca fd3c 14b8 cfbe cce9 7abd 6a05 4ebd
00000270: 259a d9be 20fa 233d 7070 6f3d d4f7 febe
00000280: b8f6 46bc f63c debe 71cd ddbe 30b9 873c
00000290: 545d 06be 5894 97be ec66 553d 16e9 153d
000002a0: 9691 68bd 38c2 b5bc 4194 08bf e2f0 653d
000002b0: 06be 653d 28cc 06bf f809 0abf c360 03bf
000002c0: 04af ecbc 8235 283d e4b7 4abd c82a 4bbc
000002d0: 9475 f53c 1dc5 efbe 7856 18bc fa93 2abd
000002e0: ec57 e33c 79e8 f7be 20f5 f53b fadd 93be
000002f0: 34ce 04bf 66f8 02bf 9e67 02bf c27a e4be
00000300: d06d 56bd 1c1a f3be 908c b73c 2750 a1be
00000310: 9c7a 03bf a83d 21bd c361 e0be 40f8 5bbd
00000320: 3faa febe d9ae eabe a686 a1be 05ec f8be
00000330: 4e98 e6be a07a 283b 3dfa 6ebe ac6b 05bf
00000340: fa04 5a3d 0e0c 613d 0b26 06bf bb08 e2be
00000350: af78 d8be 00e5 03bd c7e3 f3be 567c f5be
00000360: 72cc 233d 22e0 37bd fdd7 f0be e46b 4a3d
00000370: e872 d7bc 40b7 343d 306f 64bc 0a03 f8be
00000380: 2ed0 e2be da41 e1be 99f6 febe f2b6 01bf
00000390: 6064 07bf 9214 183d e2a5 343d b8e9 863c
000003a0: b318 eabe 881f 7b3d d690 10bf 4622 79bd
000003b0: 50ca da3b ecc5 f0be c6a5 0bbf ce4e 74bd
000003c0: aa40 08bf 88c0 fd3c 82ac 1c3d 0fb8 aabe
000003d0: da18 3cbd 18af 313c 6df4 e4be 8643 f5be
000003e0: d440 fdbe 3e56 7dbd 3021 ee3b b05b 0bbf
000003f0: 3233 0dbf 6828 6bbd 61e4 79be b40c ae3c

linear2.bias f4 [256]
-0.55506474 -5.2617235 -0.5897923 -0.5414443 -0.526477 -0.39989397 -8.832584 -0.49191868
-0.46499568 -0.42976058 -0.52895147 -0.8128012 -0.5728926 -0.51010793 -0.47748068 -0.4566921
-1.6282207 -0.70765215 -2.3002062 -0.564451 -0.5442464 -0.56246734 -7.878652 -0.53971916
-0.48359677 -0.48136684 -0.43576124 -0.50273544 -0.5476942 -0.52152926 -0.45470387 -2.8115804
-0.5626084 -0.40667027 -7.9654045 -0.60500735 -0.57852346 -0.5631119 -2.0708554 -0.46762565
-0.5264803 -0.46493593 -2.4016438 -0.6024537 -7.7778263 -0.45377696 -0.47185248 -0.59696275
-0.46963328 -0.5376777 -1.4605435 -0.5954848 -0.5596781 -0.52139014 -0.4255413 -0.53761333
-0.51846856 -0.45233005 -1.5113484 -0.5168442 -0.5264212 -1.4724658 -0.5473757 -0.59869987
-0.47419572 -0.4951582 -0.7612333 -0.4152244 -0.59741616 -0.57763636 -0.5429394 -0.5919547
-8.405636 -0.61648786 -8.037833 -0.6232516 -0.4667904 -0.50530577 -0.52192116 -0.49906233
-0.518019 -0.6189124 -0.3997183 -0.4069851 -6.4707065 -0.5734556 -0.47698772 -0.56694704
-0.5107832 -0.44728175 -0.6368412 -0.49654552 -6.366852 -0.5174761 -0.52683973 -0.4491929
-5.806034 -8.234426 -0.5346942 -0.44635582 -0.6016011 -0.6222064 -0.5570893 -0.45237985
-0.49698249 -0.5461354 -0.51541483 -0.7188903 -0.43196306 -0.47234848 -0.59758157 -0.49671996
-0.5014629 -3.2484066 -0.39943203 -1.3870063 -0.5691077 -0.46256235 -6.715188 -0.51392585
-0.47580966 -0.57052755 -0.57182765 -0.4827627 -2.7797368 -0.5923601 -0.4881676 -0.4374354
-4.003876 -2.0894055 -0.44956228 -0.46360382 -0.4785124 -0.49232516 -0.5798182 -0.6133634
-8.466435 -0.45374778 -0.4610396 -7.855106 -0.41462278 -3.3691425 -0.56758565 -0.59352756
-0.5358699 -0.4852947 -0.550747 -0.51651466 -0.50498194 -0.53653663 -0.5460641 -0.41037115
-0.7709681 -2.3211555 -9.015997 -0.53203267 -0.563125 4.3075247 -8.903613 -0.6333729
-8.526327 -0.49374822 -0.4624609 -0.51383793 -0.62060463 -0.28289172 -0.41128466 -0.5926119
-1.5330226 -6.281283 -0.5299828 -0.53243405 -0.47142467 -1.448307 -0.44418743 -0.4051793
-0.76732206 -0.4792522 -7.382981 -0.61097777 0.3253053 -0.4235291 -0.40713826 -0.52733034
-0.6172842 -0.5163246 -0.47513157 -0.5171342 -0.62528473 -1.1437633 -0.4485179 -8.418635
-0.4906791 -3.1588058 -0.48687693 -0.48181233 -8.533177 -4.817093 -0.6727753 -0.598422
-0.51756275 -0.4901837 -0.60138017 -0.6827575 -0.3350066 -0.4546342 -0.47173426 -0.5491994
-1.6697664 -0.44915414 -0.55124176 -0.7510213 -0.5274022 -0.44261622 -0.5282456 -7.9133806
-0.7357456 -0.41605768 -0.75649655 -0.5447253 -0.5653442 -0.59802943 -0.47839108 -0.5114052
-0.56737345 -7.93596 -0.4356243 -0.44925013 -0.48717993 -0.5307188 -0.40782857 -7.980692
-0.53980947 -0.46738893 -0.53852886 -8.634833 -0.59711283 -0.4218245 -1.5107437 -0.8502355
-0.3942192 -2.1522472 -0.5230844 -0.5216783 -2.3608377 -0.5482347 -0.5800533 3.9836218
-0.55057317 -0.41825306 -0.44265717 -0.5526336 -0.5400982 -0.8172154 -0.5341205 -0.50998867
00000000: b918 0ebf 0a60 a8c0 a1fc 16bf 189c 0abf
00000010: 32c7 06bf e7be ccbe 4452 0dc1 c4dc fbbe
00000020: ea13 eebe 9409 dcbe 5d69 07bf bd13 50bf
00000030: 17a9 12bf 6f96 02bf 5978 f4be 8cd3 e9be
00000040: 8969 d0bf b128 35bf 9436 13c0 dc7f 10bf
00000050: bb53 0bbf dcfd 0fbf eb1d fcc0 092b 0abf
00000060: ff99 f7be b775 f6be 191c dfbe 45b3 00bf
00000070: b035 0cbf f182 05bf f2ce e8be eff0 33c0
00000080: 1b07 10bf 1637 d0be 98e4 fec0 c3e1 1abf
00000090: 1d1a 14bf 1a28 10bf e588 04c0 a16c efbe
000000a0: 6ac7 06bf 150c eebe 88b4 19c0 683a 1abf
000000b0: f4e3 f8c0 7455 e8be a696 f1be 8dd2 18bf
000000c0: c673 f0be 3fa5 09bf 17f3 babf b171 18bf
000000d0: 1047 0fbf d379 05bf 8de0 d9be 07a1 09bf
000000e0: 5bba 04bf ce97 e7be dd73 c1bf e74f 04bf
000000f0: 8ac3 06bf c279 bcbf d020 0cbf 6544 19bf
00000100: c8c9 f2be 6085 fdbe 30e0 42bf 4b98 d4be
00000110: 44f0 18bf fadf 13bf 14fe 0abf 588a 17bf
00000120: 7c7d 06c1 26d2 1dbf f79a 00c1 6b8d 1fbf
00000130: 27ff eebe b85b 01bf a09c 05bf 1985 ffbe
00000140: e59c 04bf 0b71 1ebf e1a7 ccbe 5a60 d0be
00000150: 0710 cfc0 fccd 12bf bc37 f4be 7123 11bf
00000160: b0c2 02bf 1d02 e5be 0608 23bf 373b febe
00000170: 40bd cbc0 5079 04bf f8de 06bf 9dfc e5be
00000180: 08cb b9c0 35c0 03c1 b8e1 08bf c088 e4be
00000190: 8802 1abf eb48 1fbf 689d 0ebf 559e e7be
000001a0: 7d74 febe 88cf 0bbf 3af2 03bf 3209 38bf
000001b0: 432a ddbe a9d7 f1be 1bfb 18bf 1452 febe
000001c0: df5f 00bf e5e5 4fc0 5b82 ccbe 6c89 b1bf
000001d0: 0bb1 11bf f9d4 ecbe d2e2 d6c0 a590 03bf
000001e0: 539d f3be 180e 12bf 4c63 12bf ac2c f7be
000001f0: 35e7 31c0 e9a4 17bf 1bf1 f9be 88f7 dfbe
00000200: c11f 80c0 d2b8 05c0 072d e6be 7b5d edbe
00000210: 94ff f4be 0b12 fcbe f76e 14bf 6205 1dbf
00000220: 8576 07c1 a151 e8be 620d ecbe 075d fbc0
00000230: 7049 d4be 08a0 57c0 4b4d 11bf 6cf1 17bf
00000240: c52e 09bf 8c78 f8be c1fd 0cbf 4e3a 04bf
00000250: 7f46 01bf 775a 09bf dbca 0bbf 2b1c d2be
00000260: 2a5e 45bf d08d 14c0 8641 10c1 4b33 08bf
00000270: f628 10bf 3ed7 8940 3375 0ec1 ba24 22bf
00000280: d66b 08c1 91cc fcbe adc7 ecbe e28a 03bf
00000290: f2df 1ebf 2fd7 90be e793 d2be 6ab5 17bf
000002a0: 163a c4bf 4500 c9c0 f4ac 07bf 994d 08bf
000002b0: 935e f1be 2062 b9bf 896c e3be a973 cfbe
000002c0: 386f 44bf 8b60 f5be 6141 ecc0 0a69 1cbf
000002d0: 6b8e a63e ced8 d8be 6d74 d0be 1fff 06bf
000002e0: 5606 1ebf d92d 04bf 7244 f3be e862 04bf
000002f0: a912 20bf d666 92bf 23a4 e5be bbb2 06c1
00000300: 4a3a fbbe e029 4ac0 ef47 f9be 1bb0 f6be
00000310: e587 08c1 a025 9ac0 013b 2cbf 2f32 19bf
00000320: fe7e 04bf 5cf9 fabe 0df4 19bf 32c9 2ebf
00000330: fc85 abbe d0c5 e8be 2787 f1be 5598 0cbf
00000340: e8ba d5bf 88f7 e5be 2e1e 0dbf ef42 40bf
00000350: d503 07bf 989e e2be 1b3b 07bf 6a3a fdc0
00000360: d359 3cbf 8305 d5be c2a9 41bf 1e73 0bbf
00000370: 66ba 10bf 7518 19bf adef f4be 74eb 02bf
00000380: 633f 11bf 62f3 fdc0 260a dfbe 1d04 e6be
00000390: a66f f9be 30dd 07bf e8ce d0be d461 ffc0
000003a0: f430 0abf 9a4d efbe 07dd 09bf 4728 0ac1
000003b0: 63dc 18bf 62f9 d7be 0d60 c1bf 09a9 59bf
000003c0: 19d7 c9be 6bbe 09c0 dce8 05bf b68c 05bf
000003d0: f717 17c0 1c59 0cbf 607e 14bf a9f3 7e40
000003e0: 5df2 0cbf 4425 d6be f6a3 e2be 6579 0dbf
000003f0: e043 0abf 0735 51bf 1fbc 08bf 9e8e 02bf

linear3.weight f4 [2, 256]
-0.5740296 -0.17281726 -0.55391467 0.5133806 0.5581584 -0.5919261 1.4568954 -0.49430048
0.4388339 0.4189681 0.42445984 -0.018105365 -0.530183 0.52507704 0.41464213 -0.48313797
-0.07300886 -0.5054315 1.7309053 0.5738057 0.3976254 -0.5009876 1.2853824 -0.54155487
-0.58655936 -0.46950898 0.4417361 -0.47010928 -0.5452137 0.5135925 -0.5757904 -0.24911468
0.39903957 0.42603576 0.62757134 -0.5458179 0.45685115 -0.46104443 3.1497617 -0.57745063
0.40685987 0.45188305 1.4026028 -0.5394612 0.9554182 0.48239395 0.45495102 -0.5495406
0.42584327 -0.5743716 0.9411892 -0.5386433 -0.48316604 -0.0132673485 0.41604364 -0.50963205
-0.5468571 0.4152846 1.4305366 -0.5664461 -0.56382084 0.3935761 -0.3885622 0.5419332
-0.58705896 0.46540534 0.22773051 0.42887613 -0.5508881 -0.047743134 -0.45417002 -0.53918386
0.64249724 -0.5413685 0.97270566 -0.5634367 0.41812775 0.50615007 -0.55898523 -0.461974
-0.481267 0.25505537 0.4151798 0.41678318 0.06555898 -0.55920076 0.40241247 -0.5583105
-0.5725574 0.41815808 -0.50333965 0.41028547 -0.30016354 -0.55739385 -0.5090767 0.04076288
4.689038 1.1836696 -0.48019162 0.44753298 -0.5748348 -0.5773395 0.5154943 -0.4864822
-0.52624893 0.48875353 -0.57504386 0.20653114 0.39743936 0.42072195 -0.5067656 0.49330667
0.41580737 1.4174881 0.40942162 -0.62305754 0.47237104 0.49833077 2.2905545 -0.017706864
0.50669384 -0.5704175 -0.51070845 0.46835908 -0.07099315 -0.5370558 -0.52288926 0.437255
-0.12032549 -1.3818424 0.44534135 0.4532169 0.44349664 -0.54548895 -0.50339335 -0.553336
1.1287192 0.41249597 0.395989 1.3500818 0.43101114 1.1787093 -0.5731412 -0.5842902
-0.56018484 -0.5744349 -0.49138987 -0.5831169 0.43500057 -0.5260913 -0.54394007 0.43733016
-0.5337968 2.9776917 0.6198188 -0.57051504 -0.44687214 2.39124 1.1731677 -0.003449574
1.3485267 -0.46881133 0.39793092 0.45034534 -0.5367084 -0.595228 0.44171473 -0.57748413
-1.3170154 2.0839734 0.49710447 -0.5330798 -0.4520911 -0.14418094 0.41066995 0.44703442
1.4178982 -0.5896088 -1.1617091 -0.55796057 -0.008264581 0.4270141 0.43066224 -0.5487053
-0.5650384 0.44191375 0.44415548 0.45172328 -0.5239188 -0.58934915 0.4117318 1.0834162
-0.46703607 6.5438485 -0.48020992 -0.56021905 1.985333 0.01060476 0.6143901 -0.56989074
-0.56437904 -0.012675017 -0.57995766 0.40487722 -0.584991 0.43245104 -0.5900882 -0.56617
0.28363544 0.4289054 -0.46872565 0.7542856 0.21569617 0.4256217 -0.49569058 0.77035064
0.21243413 0.42451552 -0.5107698 0.39565971 0.5306476 0.21760465 0.4563359 0.42195284
-0.5724479 3.1433663 0.39545393 -0.5485613 -0.52254623 -0.4518473 0.4442404 0.7798132
-0.53557277 0.45370924 0.53841305 0.8379268 -0.556964 0.4249077 -0.036665767 -0.32987672
-0.5904643 -0.86672795 -0.5687364 -0.05259785 -0.1235736 -0.49439707 -0.56651664 -3.4424489
-0.562529 0.41874045 0.4182765 -0.56375265 0.48700938 -0.4945848 -0.56208414 -0.5836088
00000000: 9bf3 12bf 02f7 30be 5acd 0dbf e96c 033f
00000010: 78e3 0e3f 7888 17bf 8c7b ba3f f414 fdbe
00000020: d6ae e03e fd82 d63e cd52 d93e b451 94bc
00000030: 13ba 07bf 736b 063f f94b d43e dc5d f7be
00000040: ab85 95bd f563 01bf 4e8e dd3f eee4 123f
00000050: 8e95 cb3e b940 00bf 6987 a43f 57a3 0abf
00000060: c128 16bf 7b63 f0be 3c2b e23e 2ab2 f0be
00000070: 2093 0bbf cc7a 033f 0067 13bf eb17 7fbe
00000080: ea4e cc3e 5c21 da3e 84a8 203f b9ba 0bbf
00000090: 65e8 e93e 040e ecbe b295 4940 ced3 13bf
000000a0: f04f d03e 375d e73e 7d88 b33f 211a 0abf
000000b0: 4a96 743f 57fc f63e 57ef e83e b1ae 0cbf
000000c0: 2108 da3e 040a 13bf c7f1 703f 87e4 09bf
000000d0: 8a61 f7be 4b5f 59bc ac03 d53e 3f77 02bf
000000e0: d4fe 0bbf 2fa0 d43e d31b b73f 9d02 11bf
000000f0: 9056 10bf ce82 c93e a0f1 c6be 22bc 0a3f
00000100: 7f49 16bf 9c49 ee3e 3032 693e a795 db3e
00000110: 0107 0dbf 4e8e 43bd f988 e8be f407 0abf
00000120: b37a 243f 2097 0abf 3d03 793f 633d 10bf
00000130: d714 d63e 0d93 013f a819 0fbf db87 ecbe
00000140: a168 f6be 9e96 823e 7292 d43e 9b64 d53e
00000150: c943 863d c827 0fbf 0209 ce3e 70ed 0ebf
00000160: 1f93 12bf d118 d63e deda 00bf f010 d23e
00000170: 09af 99be 5db1 0ebf da52 02bf faf6 263d
00000180: 990c 9640 7c82 973f addb f5be 0b23 e53e
00000190: 6028 13bf 85cc 13bf 6ff7 033f 3214 f9be
000001a0: 40b8 06bf e73d fa3e 1336 13bf e67c 533e
000001b0: 2c7d cb3e de68 d73e 64bb 01bf b192 fc3e
000001c0: b4e4 d43e 4070 b53f b69f d13e b380 1fbf
000001d0: 9eda f13e 3625 ff3e 7298 1240 fc0d 91bc
000001e0: b0b6 013f e206 12bf cabd 02bf c3cc ef3e
000001f0: db64 91bd 7d7c 09bf 12dc 05bf e3df df3e
00000200: 366d f6bd 36e0 b0bf c803 e43e 0c0c e83e
00000210: fe11 e33e 2aa5 0bbf 63de 00bf 6ea7 0dbf
00000220: df79 903f ac32 d33e 12bf ca3e 7bcf ac3f
00000230: 7ead dc3e f2df 963f 62b9 12bf 0b94 15bf
00000240: 4668 0fbf 2a0e 13bf 7497 fbbe 2647 15bf
00000250: 65b8 de3e ebad 06bf a83f 0bbf bde9 df3e
00000260: e8a6 08bf 8092 3e40 72ac 1e3f 460d 12bf
00000270: 6dcc e4be 130a 1940 5c2a 963f 4012 62bb
00000280: 869c ac3f 0a08 f0be 9abd cb3e aa93 e63e
00000290: b965 09bf dd60 18bf 6f28 e23e 00d6 13bf
000002a0: f693 a8bf d25f 0540 7a84 fe3e eb77 08bf
000002b0: 7c78 e7be 2ba4 13be 5543 d23e b2e1 e43e
000002c0: b07d b53f 9af0 16bf e2b2 94bf 81d6 0ebf
000002d0: 2a68 07bc 98a1 da3e c37f dc3e f377 0cbf
000002e0: 5ba6 10bf 8542 e23e 5968 e33e 4648 e73e
000002f0: 8b1f 06bf 96df 16bf 83ce d23e 62ad 8a3f
00000300: 5a1f efbe 3567 d140 13de f5be 846a 0fbf
00000310: 641f fe3f 96bf 2d3c ab48 1d3f 5ce4 11bf
00000320: 257b 10bf e0aa 4fbc 1b78 14bf 114c cf3e
00000330: f8c1 15bf 396a dd3e 0510 17bf 84f0 10bf
00000340: aa38 913e 7d99 db3e cffc efbe dc18 413f
00000350: 75df 5c3e 16eb d93e 28cb fdbe b335 453f
00000360: 5588 593e 195a d93e cfc1 02bf e993 ca3e
00000370: 85d8 073f c1d3 5e3e dca4 e93e 340a d83e
00000380: f28b 12bf ea2c 4940 f078 ca3e 836e 0cbf
00000390: 97c5 05bf 8858 e7be 7a73 e33e d6a1 473f
000003a0: 4c1b 09bf 944c e83e 70d5 093f 5f82 563f
000003b0: 3195 0ebf 818d d93e d82e 16bd 9ae5 a8be
000003c0: ab28 17bf e2e1 5dbf b598 11bf d870 57bd
000003d0: 2814 fdbd 9d21 fdbe 3c07 11bf 1551 5cc0
000003e0: e701 10bf 2665 d63e 5628 d63e 1852 10bf
000003f0: 4b59 f93e 383a fdbe bfe4 0fbf 6367 15bf

linear3.bias f4 [2]
4.458223 -9.413303
00000000: c3a9 8e40 e49c 16c1
