models/model_name.bin (torch, 269551 bytes, 6 tensors)

linear1.weight f4 [256, 1]
0	0xbf3168d6	-0.6930059
1	0x3fb1e5f3	1.38983
2	0xbf3829cd	-0.7193878
3	0xbe8a4e88	-0.2701304
4	0xbe3446f5	-0.17605193
5	0xbf32ed40	-0.69893265
6	0xbf1e3f6d	-0.6181553
7	0xbd6619a5	-0.0561768
8	0x3f7942ae	0.9736737
9	0x3db8d1fb	0.090244256
10	0xbbdde954	-0.0067721996
11	0xbef5275c	-0.4788159
12	0xbe5a1cb0	-0.21300006
13	0xbec54df9	-0.3853605
14	0xbed19b59	-0.40938833
15	0xbee9c437	-0.45657513
16	0xbb8f6273	-0.0043757497
17	0xbe30f7be	-0.17282006
18	0xbf26b0fe	-0.6511382
19	0xbfbe32ad	-1.4859215
20	0xbf442244	-0.76614785
21	0xbe41455e	-0.18874118
22	0xbf89c21d	-1.0762364
23	0xbf7fefe6	-0.9997543
24	0xbf37e016	-0.71826303
25	0xbb68211e	-0.003542013
26	0xbea98825	-0.33111683
27	0xbe00386b	-0.12521522
28	0x3f76856b	0.9629733
29	0xbf0d0829	-0.55090576
30	0xbf0956b6	-0.53647935
31	0x3fba1b57	1.4539593
32	0xbe1465c2	-0.14491943
33	0xbf01a901	-0.50648504
34	0xbf7338a0	-0.9500828
35	0xbe8d7384	-0.27627194
36	0xbf0ca9f2	-0.54946816
37	0xbe2a0ca0	-0.16606379
38	0xbec79114	-0.38977873
39	0xbf15fc0a	-0.58587706
40	0xbf0b8dd8	-0.5451331
41	0xbf537ac0	-0.82609177
42	0xbf998ac8	-1.1995478
43	0xbdd6c154	-0.10486093
44	0xbe20f27c	-0.157175
45	0xbf09be6a	-0.53806174
46	0xbef712c8	-0.48256516
47	0xbf15ec70	-0.585639
48	0xbf5e2b04	-0.86784387
49	0xbd4ea880	-0.050453663
50	0xbf301519	-0.6878219
51	0xbddfac30	-0.10921514
52	0xbf5aaa76	-0.8541635
53	0xbf121206	-0.5705875
54	0xbe5748e2	-0.21023896
55	0xbf2091ff	-0.6272277
56	0xbeb2fac8	-0.34956956
57	0x3cdd9543	0.027048713
58	0xbf2aef3c	-0.6677129
59	0xbe4b006f	-0.19824384
60	0x3fc8743f	1.5660475
61	0xbecc13d6	-0.39858884
62	0xbf5d4ad2	-0.8644229
63	0xbd966094	-0.073426396
64	0xbf4fb4e2	-0.8113538
65	0xbeb019ee	-0.34394783
66	0x3ce98f56	0.02851073
67	0xbec3d8cc	-0.3825134
68	0xbf0306eb	-0.5118243
69	0xbf78692e	-0.9703549
70	0xbf16d1d0	-0.589139
71	0xbe9519cc	-0.29121244
72	0xbeb1b6e6	-0.34709853
73	0xbf5db510	-0.86604404
74	0xbe932d58	-0.28745532
75	0xbeb39059	-0.35071066
76	0xbe39ad50	-0.1813252
77	0xbe36e258	-0.17859781
78	0xbf6b0c50	-0.9181566
79	0xbf552de4	-0.8327315
80	0xbe59194c	-0.21201056
81	0x3f0a635c	0.5405786
82	0xbf4b3b56	-0.79387414
83	0xbdb65cb0	-0.089043975
84	0x3c2c6809	0.010522851
85	0xbcf6a340	-0.03010714
86	0xbee67fc4	-0.45019352
87	0xbf06c1c0	-0.5263939
88	0xbf21f93e	-0.6327094
89	0xbe8084c4	-0.25101292
90	0xbf46fa09	-0.77725273
91	0xbf14a84e	-0.5806931
92	0xbf9d5363	-1.2291073
93	0xbf70771c	-0.93931746
94	0xbea5ed5f	-0.32407662
95	0xbd938183	-0.07202437
96	0xbeb5b374	-0.35488474
97	0xbec22fe0	-0.3792715
98	0xbe7c8514	-0.2466014
99	0xbdaaf4fa	-0.08347507
100	0xbf625c2e	-0.88421905
101	0xbe4ac200	-0.19800568
102	0xbed1b95e	-0.40961736
103	0xbf05daa4	-0.52286744
104	0xbe926314	-0.28591216
105	0xc035299b	-2.8306644
106	0x3fca1747	1.5788354
107	0xbe2424dc	-0.16029686
108	0xbf59dc2d	-0.85101587
109	0xbf17d330	-0.5930662
110	0xbf31a7b3	-0.69396514
111	0xbee52567	-0.44755098
112	0xbf588c04	-0.84588647
113	0xbe0d949f	-0.13826226
114	0x3fd7a117	1.6846036
115	0x3ecddd59	0.40207937
116	0xbf100e28	-0.562716
117	0x3fc1ec56	1.5150249
118	0xbdf34480	-0.118783
119	0xbf18f52a	-0.5974909
120	0xbe647910	-0.22311807
121	0xbf6f3c40	-0.9345131
122	0xbed271ac	-0.4110235
123	0xbe98ec0d	-0.29867592
124	0xbf63dbc6	-0.8900722
125	0x3fb9b13f	1.4507216
126	0x3f3d07a4	0.73839784
127	0xbeb07888	-0.34466958
128	0xbd41dd75	-0.04733034
129	0xbeb84543	-0.35990342
130	0xbeb7882c	-0.35846078
131	0xbebe04e0	-0.37113094
132	0xbf152d00	-0.5827179
133	0x3f4411f0	0.7658987
134	0xbf0fb5e6	-0.5613693
135	0xbbc88a98	-0.0061200373
136	0xbe926fe2	-0.28600985
137	0xbee19be4	-0.44064248
138	0xbf7f6eec	-0.9977863
139	0xbea16077	-0.3151891
140	0xbf6b070c	-0.9180763
141	0xbf5156e2	-0.817732
142	0xbebabd18	-0.36472392
143	0xbde1166c	-0.10990605
144	0xbea6e384	-0.32595456
145	0xbf70c27c	-0.9404676
146	0xbf66eecf	-0.90208143
147	0x3f4a5b0d	0.7904518
148	0xbf4644a0	-0.77448463
149	0xbe857253	-0.26063785
150	0xbeef2ebc	-0.46715343
151	0x3aaed1f1	0.0013337714
152	0xbea1f704	-0.3163377
153	0xbf7b10c2	-0.98072445
154	0xbe957919	-0.29193953
155	0xbf5279fe	-0.82217395
156	0xbe4bce28	-0.19902861
157	0xbeb4b559	-0.35294607
158	0xbe00fa47	-0.12595473
159	0x3ffd6bb8	1.9798498
160	0xbef57e94	-0.47948134
161	0xbe09d2a2	-0.13459256
162	0x3d6d04ca	0.057865895
163	0xbf062dec	-0.5241382
164	0xbf65b7de	-0.89733684
165	0xbe6768b0	-0.22598529
166	0xbefa04be	-0.48831743
167	0x3f5168bc	0.81800437
168	0xbe3e0001	-0.18554689
169	0xbecff5b8	-0.40617156
170	0xbe8ef518	-0.27921367
171	0xbee92dd0	-0.45542765
172	0xbf1a527c	-0.6028211
173	0xbea88fcc	-0.32922208
174	0xbf00a182	-0.5024644
175	0xbe37bf6c	-0.17944115
176	0xbf2ba87a	-0.6705395
177	0xbf4a7398	-0.7908263
178	0x3fd47faa	1.660146
179	0x3f87600c	1.0576186
180	0xbf1454ba	-0.5794178
181	0xbf877463	-1.0582393
182	0xbfb66002	-1.4248049
183	0xbc13e731	-0.009027288
184	0x3da21842	0.07914783
185	0xbe1d1aef	-0.15342306
186	0x3ca4a76a	0.02009936
187	0xbd86d770	-0.0658406
188	0xbd872467	-0.0659874
189	0x3d9c243a	0.07624097
190	0xbf4c2c42	-0.7975503
191	0xbf29b2d0	-0.6628847
192	0x3fe8e8b9	1.8196021
193	0xbeb447f0	-0.35211134
194	0xbefaba5b	-0.48970303
195	0xbf3d6ade	-0.7399119
196	0xbebfd4e0	-0.37467098
197	0xbe43af48	-0.19109833
198	0xbf388d3e	-0.7209052
199	0xbe2b12bf	-0.1670637
200	0xbef4b4af	-0.477941
201	0xbf057610	-0.52133274
202	0xbf74cdac	-0.9562633
203	0xbf0f50e4	-0.55982804
204	0xbf166b94	-0.587579
205	0xbb077800	-0.002067089
206	0xbf1989ac	-0.59975696
207	0xbf5e0068	-0.8671937
208	0xbf0625a6	-0.52401197
209	0xbf52e8ac	-0.8238628
210	0xbf48392c	-0.7821224
211	0xbf549f70	-0.8305578
212	0xbed9b2da	-0.42519265
213	0x3fe792df	1.8091697
214	0xbf607204	-0.87673974
215	0xbf9158af	-1.1355189
216	0x3ca7e535	0.020495037
217	0x3fa26850	1.2688084
218	0xbf320c5e	-0.6955012
219	0xbe4a978a	-0.1978437
220	0xbec06c3a	-0.3758257
221	0xbd8dead0	-0.069295526
222	0xbd9d9a47	-0.07695442
223	0xbf17fbd6	-0.59368646
224	0xbf012c1e	-0.5045794
225	0xbf242958	-0.64125586
226	0xbecbc65f	-0.39799783
227	0xbe6301c0	-0.22168636
228	0xbed2a220	-0.41139317
229	0xbf0ae396	-0.5425352
230	0xbf351160	-0.7072964
231	0x3caf13bd	0.021371717
232	0xbea09495	-0.3136336
233	0x4011b2c3	2.2765357
234	0xbf3f68d2	-0.7476932
235	0x3f53a1f8	0.8266902
236	0xbf2d1808	-0.67614794
237	0xbf7757d2	-0.9661838
238	0xbefdbefd	-0.49559775
239	0xbe14543a	-0.14485255
240	0xbe533868	-0.20626986
241	0xbe8b0e3b	-0.27159294
242	0xbf56a498	-0.838449
243	0xbecdd1e1	-0.40199187
244	0xbfc085cb	-1.504083
245	0xbf59ec55	-0.8512624
246	0xbec1768c	-0.37785757
247	0xbe79d2e0	-0.24396849
248	0x3f657bba	0.89641917
249	0xbea8ce94	-0.32970107
250	0x3f885537	1.0651006
251	0xbece30dd	-0.40271655
252	0xbeb07ff0	-0.3447261
253	0x3fa0dc0f	1.2567157
254	0xbe8cf074	-0.275272
255	0xbf157de4	-0.5839522

linear1.bias f4 [256]
0	0xbf1cb18e	-0.61208427
1	0xc12f7511	-10.966081
2	0xbeada57f	-0.33915326
3	0xbed5e1cc	-0.41773832
4	0xbdcc8531	-0.09986342
5	0xbf17d31c	-0.593065
6	0x4091eb45	4.5599694
7	0xbfbae927	-1.4602402
8	0xc1cdd05d	-25.72674
9	0xc0985d6b	-4.7614036
10	0x40b39b44	5.6127033
11	0xbf653a08	-0.89541674
12	0xbf197de8	-0.5995774
13	0xbf392de3	-0.7233564
14	0xbf5b5669	-0.85678726
15	0xbf3702af	-0.7148847
16	0x40eaa17d	7.332213
17	0xbf254c6d	-0.6456974
18	0xbf107e46	-0.5644268
19	0x40286610	2.6312294
20	0xbd965dea	-0.073421314
21	0xbf2ab521	-0.6668263
22	0x405679f2	3.351193
23	0xbc781e00	-0.015143871
24	0xbf4fc1fc	-0.8115537
25	0x40f69ae2	7.7064066
26	0xbf4a9105	-0.7912753
27	0xbfd5029c	-1.6641421
28	0xc1876caa	-16.928059
29	0xbf48e445	-0.7847331
30	0xbe93d356	-0.28872174
31	0xc10bb5a1	-8.731843
32	0xbf7a773d	-0.97838193
33	0xbf672105	-0.9028476
34	0xbf1f7a70	-0.622962
35	0xbe49a910	-0.19693398
36	0xbf1b58f9	-0.60682636
37	0xbf049b85	-0.51799804
38	0xbf54c7b4	-0.8311722
39	0xbd2a8400	-0.04162979
40	0xbf02c1b6	-0.5107683
41	0xbf3b2f1a	-0.73118746
42	0x40531342	3.2980504
43	0xbfd4fd96	-1.6639888
44	0xbf945fd3	-1.1591743
45	0xbf48f71b	-0.78502053
46	0xbeb94463	-0.36184987
47	0xbf0b8b14	-0.5450909
48	0xbea0fb94	-0.3144194
49	0xbf5b5b74	-0.8568642
50	0xbfc86673	-1.5656265
51	0xbf0daec8	-0.5534482
52	0xbf368892	-0.7130214
53	0xbf11f49c	-0.5701387
54	0xbfb22965	-1.3918883
55	0xbf8725de	-1.0558431
56	0xbf4aad20	-0.7917042
57	0xc0010fa9	-2.0165808
58	0xbfa7b256	-1.3101299
59	0xbf97b49d	-1.1851994
60	0xc12b978b	-10.724498
61	0xbf5215a1	-0.82064253
62	0xbed83f68	-0.42235875
63	0xbf7b1f33	-0.9809448
64	0xbeab8ed8	-0.3350742
65	0xbf80221f	-1.0010413
66	0xc124a07a	-10.289179
67	0xbe2de098	-0.16980207
68	0xbf475686	-0.778664
69	0xbe5806fb	-0.21096413
70	0xbe593690	-0.2121222
71	0xbe9f03a4	-0.31057465
72	0xbf344aed	-0.7042683
73	0xbee744f7	-0.45169804
74	0xbd8c1bf0	-0.06841266
75	0xbf7b61dc	-0.98196197
76	0xbef86468	-0.48514104
77	0xbeb8e440	-0.3611164
78	0x406c7b52	3.6950269
79	0xbe85fd2c	-0.26169717
80	0xbef8a96d	-0.48566762
81	0xc08917d8	-4.2841606
82	0xbf158295	-0.5840238
83	0xbe4a20b8	-0.19739044
84	0xbfbefcd5	-1.4920908
85	0xbee6f428	-0.4510815
86	0xbbdee300	-0.006801963
87	0xbf11e477	-0.56989235
88	0x4094d552	4.65104
89	0xbf18ec70	-0.59735775
90	0xbd3a66d7	-0.045508232
91	0xbc99b700	-0.018764019
92	0x3e828b8d	0.25497094
93	0xbe02ebb8	-0.12785232
94	0xbf4f9344	-0.81084085
95	0xbfd4362f	-1.6579036
96	0xbef04bc8	-0.46932817
97	0xbe62b2f5	-0.22138579
98	0xbe7f4961	-0.24930336
99	0xbfd01456	-1.6256206
100	0xbf5982b2	-0.8496505
101	0xbec37544	-0.38175404
102	0xbf4f6fa0	-0.810297
103	0xbf708506	-0.9395298
104	0xbef11678	-0.47087455
105	0xc05441d1	-3.316517
106	0xc12b3042	-10.699282
107	0xbe935ef3	-0.28783378
108	0xbf61e721	-0.882433
109	0xbf279dfa	-0.6547543
110	0x40061cc6	2.0955062
111	0xbfc46cfb	-1.5345758
112	0xbe7f177a	-0.249113
113	0xbfcebbe8	-1.6151094
114	0x409354e4	4.6041126
115	0xc13abb42	-11.670717
116	0xbe1c0b30	-0.15238643
117	0xc118080a	-9.501963
118	0xbf0bee20	-0.54660225
119	0xbe9e3278	-0.3089788
120	0xbf07621c	-0.5288408
121	0xbee50ea0	-0.4473772
122	0xbf573d6a	-0.84078085
123	0xbf366c7d	-0.7125929
124	0xbeb54162	-0.35401446
125	0xc1253b9a	-10.327051
126	0xc140f348	-12.059395
127	0xbf418b60	-0.75603294
128	0xbf8959d0	-1.0730534
129	0xbf32c802	-0.6983644
130	0xbf28a029	-0.65869385
131	0xbefc9d20	-0.49338627
132	0xbf0696a2	-0.525736
133	0xc1a19445	-20.197397
134	0xbf7145ce	-0.9424714
135	0x40cecc3a	6.46243
136	0x3e886d9b	0.26646122
137	0xbe9f5a29	-0.31123474
138	0xbe66929d	-0.22516866
139	0xbef47d0d	-0.47751656
140	0xbf604dac	-0.8761852
141	0xbe8c969b	-0.27458653
142	0xbf8a6548	-1.0812159
143	0xbfb49ecd	-1.4110962
144	0xbe917dd3	-0.2841631
145	0xbf55ce2a	-0.83517706
146	0x408508e5	4.1573358
147	0xc1569c85	-13.413213
148	0xbe6a5980	-0.22885704
149	0xbeeec117	-0.4663169
150	0xbeeeb344	-0.46621144
151	0xbfa967d2	-1.3234808
152	0xbf81947d	-1.012344
153	0xbda8da10	-0.08244717
154	0xbf916c94	-1.136126
155	0x4071d2ee	3.7784991
156	0xbf640d4a	-0.8908278
157	0xbf78c341	-0.97172934
158	0xbf7f80e9	-0.99806076
159	0xc11f8691	-9.970353
160	0xbf7fbc9e	-0.9989718
161	0xbf382f55	-0.7194722
162	0xc08d6a38	-4.419216
163	0xbf02ce0e	-0.51095665
164	0xbf14dda1	-0.5815068
165	0xbf3e885c	-0.7442682
166	0xbf047e5a	-0.517553
167	0xc1422e29	-12.13627
168	0xbf9b89ba	-1.2151406
169	0xbe134078	-0.14380062
170	0xbf323ba6	-0.69622266
171	0xbefc1f51	-0.49242643
172	0xbf24329f	-0.6413974
173	0xbe24eeb8	-0.16106689
174	0x406531e5	3.5811703
175	0xbfa88e64	-1.3168454
176	0x402c31b7	2.6905344
177	0xbf105dc4	-0.56393075
178	0xc1230deb	-10.190898
179	0xc19498c8	-18.5746
180	0xbf56d490	-0.83918095
181	0xbf4691e9	-0.7756639
182	0x3f9ab963	1.2087826
183	0xbfcf95ad	-1.6217552
184	0xc0897dce	-4.296607
185	0xbf451d76	-0.7699808
186	0xbfc861ca	-1.5654843
187	0xbf31518a	-0.69265044
188	0xbfe4c989	-1.7874004
189	0x40442dbb	3.0652912
190	0xbf5db538	-0.8660464
191	0xc02096c7	-2.5092027
192	0xc11f36f8	-9.95092
193	0xbd6e2770	-0.05814308
194	0x3fdda185	1.7314917
195	0xbfcbbb6c	-1.5916572
196	0xbfafebaa	-1.3743794
197	0xbeb4298c	-0.35187948
198	0xbee0e77e	-0.43926615
199	0xbe5c4b02	-0.21512988
200	0x3fd94017	1.6972684
201	0xbf18ff82	-0.59764874
202	0xbed489ed	-0.4151148
203	0xbdec14bf	-0.115273945
204	0xbee9b2e0	-0.45644283
205	0xbf529606	-0.8226017
206	0x408e6ee8	4.4510384
207	0xbf21afbe	-0.63158786
208	0xbeccfe78	-0.40037894
209	0xbf09998c	-0.5374992
210	0xbe8f1340	-0.27944374
211	0xbea24f7c	-0.31701267
212	0xbf38cd06	-0.7218784
213	0xc041cbde	-3.028068
214	0xbeb846ed	-0.35991612
215	0x40608c8a	3.5085778
216	0xc071678a	-3.7719445
217	0xc1307100	-11.027588
218	0xbed82414	-0.42215025
219	0xbf3173c3	-0.69317263
220	0xbf5ee233	-0.870639
221	0xbf57d9d4	-0.84316754
222	0xbfaecb4b	-1.365579
223	0xbebc335e	-0.3675794
224	0xbd2f6de0	-0.042829394
225	0xbe65eae0	-0.22452879
226	0xbf78f663	-0.97250956
227	0xbf0351bc	-0.5129659
228	0xbf6e6c69	-0.9313417
229	0xbf586392	-0.8452693
230	0xbed301d4	-0.41212332
231	0xc0b048ef	-5.508903
232	0xbdcff9ba	-0.101550534
233	0xc10e9f85	-8.913945
234	0xbda80e60	-0.08205867
235	0xc132e9c3	-11.182071
236	0xbf2262e6	-0.6343216
237	0xbeeac7b8	-0.45855498
238	0xbf312297	-0.69193405
239	0xbfd4a77d	-1.6613613
240	0xbf36c7e8	-0.7139878
241	0xbef4799e	-0.47749037
242	0xbf4d1b04	-0.8011935
243	0xbf9e3b5d	-1.2361866
244	0x3fcb505c	1.5883899
245	0x4076b3b5	3.8547184
246	0xbf4b89ac	-0.79506946
247	0xbf538014	-0.82617307
248	0xc17f556f	-15.958358
249	0xbe3e63dd	-0.18592782
250	0xc195d252	-18.727695
251	0xbf8e1bfe	-1.1102293
252	0xbed49377	-0.41518757
253	0xc13171ad	-11.090253
254	0xbf27d1ca	-0.6555449
255	0xbebd492f	-0.36969897

linear2.weight f4 [256, 256]
0	0x3d68d33a	0.056842066
1	0x3d697972	0.057000585
2	0xbf1fc205	-0.62405425
3	0xbf25da3a	-0.6478611
4	0xbf0feb38	-0.5621829
5	0xbcb7185c	-0.022350483
6	0xbf1da150	-0.6157427
7	0x3aa0dbc0	0.0012272522
8	0xbf13c5bf	-0.5772361
9	0xbf201e76	-0.6254648
10	0xbf0e1983	-0.5550768
11	0x3d197be8	0.03747168
12	0xbf1037ff	-0.56335443
13	0x3d043400	0.032276154
14	0xbf2185f9	-0.6309505
15	0xbf11b2b4	-0.56913304
16	0xbf1128e9	-0.5670305
17	0xbf24c487	-0.64362377
18	0xbf21df93	-0.6323177
19	0xbf19377f	-0.59850305
20	0xbf196f31	-0.5993529
21	0xbf291fb1	-0.6606398
22	0xbf1f2a35	-0.6217378
23	0xbcee65ac	-0.029101215
24	0xbf190e3a	-0.59787333
25	0xbf0fb3a3	-0.5613348
26	0x3afd9d00	0.0019349158
27	0xbce93350	-0.02846685
28	0xbf26ae13	-0.65109366
29	0xbd422fe2	-0.047408946
30	0xbf20e033	-0.628421
31	0x3cb809b4	0.022465564
32	0xbb9c2af0	-0.0047658607
33	0xbcfdd6b8	-0.030986175
34	0x3d55c40c	0.052188918
35	0xbd2e691a	-0.0425807
36	0x3c906370	0.01762554
37	0xbf104af6	-0.5636438
38	0xbceff38c	-0.029290937
39	0xbd0f0692	-0.034918375
40	0xbf1ec95f	-0.6202602
41	0x3d22d6aa	0.0397555
42	0xbf1bf8a0	-0.60926247
43	0x3d43b262	0.04777754
44	0x3d754f54	0.059890106
45	0xbf11da8c	-0.569741
46	0xbf0c09ac	-0.5470226
47	0xbf1fbe32	-0.6239959
48	0xbcffc478	-0.031221613
49	0xbd2c5296	-0.042070948
50	0xbf2903e6	-0.66021574
51	0x3d10deda	0.035368778
52	0xbf128f51	-0.57249933
53	0xbd0c8380	-0.034305096
54	0xbd23d52e	-0.039998226
55	0xbd3234de	-0.04350745
56	0xbd7dba42	-0.061945207
57	0xbf1d94fc	-0.6155546
58	0xbf270124	-0.65236115
59	0xbcdc0088	-0.026855722
60	0x3d11025e	0.03540265
61	0xbd2b3444	-0.04179789
62	0xbf0e08a4	-0.55481935
63	0xbf0ce6a4	-0.5503943
64	0xbca85984	-0.020550497
65	0xbc5b7470	-0.01339446
66	0xbf0d5b68	-0.552176
67	0xbc3dc808	-0.011583336
68	0xbf194c8b	-0.5988242
69	0xbf1d2709	-0.6138769
70	0xbcd3eec4	-0.025870688
71	0xbc9cf90c	-0.019161724
72	0xbf14c6a0	-0.5811558
73	0xbf21dac4	-0.63224435
74	0xbd23d858	-0.040001243
75	0xbf0b553a	-0.5442692
76	0x3b543400	0.0032379627
77	0xbb79b600	-0.0038102865
78	0xbf0a70c4	-0.54078317
79	0x3d356146	0.04428222
80	0xbf282c41	-0.65692526
81	0xbf2951f1	-0.6614066
82	0xbf2728fa	-0.652969
83	0xbcc8c860	-0.024509609
84	0x3d7d2eb2	0.06181211
85	0xbd4f96f6	-0.050681077
86	0xbd050b48	-0.03248146
87	0xbf244730	-0.64171124
88	0xbf24117d	-0.64089185
89	0xbf1fcb62	-0.6241971
90	0xbf2333ba	-0.63750803
91	0xbc5bd850	-0.013418272
92	0xbf1f44ec	-0.6221454
93	0x3d38d0c4	0.04512097
94	0xbf1a2980	-0.60219574
95	0xbd0868f4	-0.033303216
96	0xbc783a90	-0.015150681
97	0xbf11d0bf	-0.56959146
98	0xbf257833	-0.64636534
99	0x3d3f1c26	0.046657704
100	0xbf1de6d5	-0.61680347
101	0xbd07b10a	-0.033127822
102	0xbc3f4ae0	-0.011675566
103	0x3d7a8e90	0.061171114
104	0xbd0d3e18	-0.034483045
105	0x3d266382	0.04062224
106	0xbce447b8	-0.02786623
107	0xbf26d1ef	-0.65164083
108	0xbf09efe6	-0.5388168
109	0x3d1cf826	0.03832259
110	0xbf1362d0	-0.5757265
111	0xbd56032a	-0.05224911
112	0xbf11e5d6	-0.56991327
113	0x3ab75080	0.0013985783
114	0xbf23fcd4	-0.6405766
115	0xbf20ebac	-0.62859607
116	0x3d1f6eb8	0.03892395
117	0xbd424d98	-0.04743728
118	0x3c8de224	0.017319746
119	0xbf0baa8c	-0.5455711
120	0xbf18dfab	-0.5971629
121	0x3c7b5738	0.015340619
122	0xbd4a1d7e	-0.049344532
123	0xbf17a0ed	-0.5922993
124	0xbf26dbfc	-0.6517942
125	0xbd759a12	-0.059961386
126	0xbd2404f2	-0.04004378
127	0xbf280a34	-0.6564057
128	0x3cd4ecb4	0.025991775
129	0xbf23737d	-0.63848096
130	0xbf0b1cda	-0.543409
131	0xbd6ddf30	-0.058074176
132	0xbf1150dc	-0.56764007
133	0xbf0d3940	-0.5516548
134	0xbd07c90e	-0.033150725
135	0xbf0e459b	-0.5557496
136	0xbf206d43	-0.6266672
137	0xbf1216bc	-0.5706594
138	0xbf103c9b	-0.56342477
139	0xbf18baff	-0.59660333
140	0xbc48f6a0	-0.012265831
141	0xbf1c2987	-0.61000866
142	0xbd3f03f8	-0.046634644
143	0xbce62404	-0.028093345
144	0xbf1056e3	-0.5638258
145	0xbf1c5b7f	-0.6107711
146	0xbf1ff999	-0.6249023
147	0x3c85cc04	0.016332634
148	0x3d28c692	0.041204996
149	0xbf1f71c1	-0.6228295
150	0x3d2d8a80	0.042368412
151	0xbd6df320	-0.05809319
152	0xbcf770f4	-0.030205227
153	0xbc9be4ec	-0.019030057
154	0xbce20e2c	-0.027594648
155	0xbf1ed898	-0.62049246
156	0xbb284080	-0.002567321
157	0xbf0fa9dd	-0.56118566
158	0xbd1b1188	-0.037858516
159	0xbc381028	-0.011234321
160	0xbcd3546c	-0.025797091
161	0xbd45255a	-0.048131324
162	0xbf220e1c	-0.6330278
163	0xbf18813e	-0.5957221
164	0xbf13c7d8	-0.5772681
165	0xbd01a7f0	-0.0316543
166	0xbf25b7c2	-0.6473352
167	0xbc707a80	-0.014677644
168	0x3d3291ee	0.0435962
169	0x3d6300c2	0.055420645
170	0xbc2c9400	-0.010533333
171	0xbf245f43	-0.6420786
172	0xbf1565a2	-0.58358204
173	0xbc964504	-0.018343456
174	0xbf202d47	-0.6256909
175	0xbd5a9886	-0.053368114
176	0xbf121591	-0.5706416
177	0xbf1aa09d	-0.60401326
178	0x3d4084a8	0.04700151
179	0xbf14b8fc	-0.58094764
180	0x3cdd3210	0.02700141
181	0xbf18227f	-0.59427637
182	0xbf148c0f	-0.5802621
183	0xbaee7a40	-0.0018194392
184	0xbf24b510	-0.6433878
185	0x3c33d2c8	0.010975547
186	0xbd1f37c2	-0.038871534
187	0x3d17ddac	0.037076637
188	0x3ca1cdec	0.019751512
189	0xbf1329b4	-0.5748551
190	0xbf0be36d	-0.546439
191	0xbd316666	-0.043310545
192	0x3c8a98f8	0.016918644
193	0xbf2084b1	-0.6270247
194	0xbf140d7a	-0.57833064
195	0xbf0bdbaa	-0.54632056
196	0xbcf08234	-0.02935896
197	0xbf1d6123	-0.61476344
198	0xbf0b1fcb	-0.5434539
199	0x3d70e7f6	0.058814965
200	0xbf0ab00a	-0.54174864
201	0xbc159120	-0.009128839
202	0xbf14708b	-0.57984227
203	0xbf1f9cce	-0.6234864
204	0xbf0d7cd8	-0.5526862
205	0x3d2feab4	0.04294844
206	0xbf240741	-0.6407357
207	0xbcfcbb4c	-0.030851029
208	0xbd22a836	-0.0397112
209	0x3ad28f40	0.001606442
210	0xbf19fbce	-0.6014985
211	0xbf1ec004	-0.6201174
212	0x3d789334	0.06068726
213	0xbf17feca	-0.5937315
214	0xbf1e04d0	-0.61726093
215	0xbf1b0f57	-0.6057028
216	0xbf170ef9	-0.5900722
217	0x3cb6fd4c	0.022337578
218	0x3cbcbb6c	0.023038588
219	0xbf22ee2c	-0.6364467
220	0xbd142b84	-0.036174312
221	0x3d2111de	0.03932368
222	0xbc3ac2c0	-0.011398971
223	0xbf185d20	-0.595171
224	0xbccc94f8	-0.024973378
225	0x3d467194	0.04844816
226	0xbf19bf20	-0.6005726
227	0x3d548fc6	0.051894926
228	0xbd1f7f00	-0.038939476
229	0xbf09e268	-0.53861094
230	0xbba3c2a0	-0.0049975663
231	0xbf243a37	-0.6415133
232	0xbf163fd7	-0.5869116
233	0x3c8eb778	0.01742147
234	0xbd502ed6	-0.050825916
235	0x3d14de2a	0.036344685
236	0xbd370dc2	-0.044690855
237	0x3cbc6df4	0.023001648
238	0xbf2700ef	-0.652358
239	0x3d366c86	0.04453709
240	0x3caff85c	0.021480732
241	0xbf27c518	-0.65535116
242	0xbf0fa075	-0.56104213
243	0x3d501bb4	0.05080767
244	0xbf18744a	-0.59552443
245	0xbf1d1af9	-0.6136928
246	0xbf1592a7	-0.584269
247	0xbf286c1c	-0.6578996
248	0xbf0bc90e	-0.5460366
249	0xbf279640	-0.6546364
250	0xbf0f3043	-0.55933017
251	0x3c984590	0.018587857
252	0xbf253bf8	-0.6454463
253	0xbd36a592	-0.044591494
254	0xbd0a04e4	-0.03369607
255	0xbf1e5ba1	-0.61858565

linear2.bias f4 [256]
0	0xbf1f800e	-0.6230477
1	0xc0f318e0	-7.5967865
2	0xbeed1bcc	-0.4631027
3	0xbf2ba678	-0.67050886
4	0xbebcfef6	-0.3691327
5	0xc0872e26	-4.2243834
6	0xbf3bbd29	-0.7333551
7	0xbfa4683f	-1.2844313
8	0xbf0d5c3e	-0.55218875
9	0xbeadaf4d	-0.33922806
10	0xbf20422c	-0.6260097
11	0xbf0fd5a2	-0.5618535
12	0xbf143748	-0.5789685
13	0xbf169e79	-0.5883556
14	0xbe8a84f0	-0.27054548
15	0xbf1260ca	-0.5717894
16	0xbf15a976	-0.584617
17	0x3d8ba840	0.068192005
18	0xbeb1ec1a	-0.34750444
19	0xbf19732a	-0.5994135
20	0xbe6b561f	-0.22982071
21	0x40130d9d	2.297706
22	0xbcbc06ac	-0.0229524
23	0xbf11b95c	-0.5692346
24	0xbf0e5977	-0.5560526
25	0xbfa32685	-1.274613
26	0xbe5caf09	-0.21551146
27	0xbf207107	-0.62672466
28	0xbea7e68a	-0.32793075
29	0xbf1ea8de	-0.6197642
30	0xbf282e7a	-0.6569592
31	0xbe17e066	-0.14831695
32	0xbef27826	-0.4735729
33	0xbeaa6c28	-0.33285642
34	0xbf0fe7c3	-0.56213015
35	0xbecd5d6f	-0.40110347
36	0xbe2a3211	-0.16620661
37	0x3ce5ec88	0.028066888
38	0xbf2afff7	-0.6679682
39	0xbe8702fe	-0.2636947
40	0xbf1b4dd5	-0.6066564
41	0xbec50b73	-0.38485298
42	0xbf2051a2	-0.6262456
43	0xbf45bad0	-0.7723818
44	0xbfa9a67f	-1.3253936
45	0xbeef143f	-0.46695134
46	0xbf18c6ee	-0.5967854
47	0xbff1b2f9	-1.8882743
48	0xbf223834	-0.6336701
49	0xbeb4199d	-0.3517579
50	0x3daf763d	0.08567474
51	0xbf299fee	-0.6625966
52	0xbf1b5505	-0.60676605
53	0xbf10fcdf	-0.5663585
54	0xbf170156	-0.58986413
55	0xbf21587d	-0.6302565
56	0xbf1e359b	-0.61800545
57	0xbfbeeb81	-1.491562
58	0xbd9d2747	-0.07673507
59	0xbead3c42	-0.33835036
60	0xbf8e0f4d	-1.109842
61	0xbf161f8e	-0.586419
62	0x3f9e1924	1.2351422
63	0xbf2418ae	-0.6410016
64	0xba656f00	-0.0008752197
65	0xbf07d65c	-0.5306146
66	0xbf1feded	-0.6247242
67	0xbe7a3796	-0.24435267
68	0xc0c97056	-6.294963
69	0xbe836b9a	-0.2566803
70	0xbf0b1751	-0.54332453
71	0xbf3a021a	-0.72659457
72	0xbebb052c	-0.36527383
73	0xbeba5299	-0.36391142
74	0xbeba9d0c	-0.36447942
75	0x3ddd323b	0.10800596
76	0xbf2b5f32	-0.6694213
77	0xbf14f933	-0.5819275
78	0xbf02410c	-0.50880504
79	0xc0c4bf96	-6.148387
80	0xbf29b6db	-0.6629464
81	0xbf189b1d	-0.59611684
82	0xbf1c557c	-0.6106794
83	0xbef60946	-0.4805395
84	0xbf1f0932	-0.62123406
85	0xbf0edc49	-0.5580488
86	0xbf0f96d0	-0.56089497
87	0xbe794eb5	-0.2434643
88	0xbf28f568	-0.6599946
89	0xbf1bade1	-0.60812193
90	0xbf0aee9b	-0.54270333
91	0xbf231c9b	-0.63715523
92	0xbf262a93	-0.64908713
93	0x3f05e611	0.5230418
94	0xbf1b7014	-0.6071789
95	0xbed20146	-0.41016597
96	0xbeb27665	-0.34855953
97	0xbf057a7a	-0.5214001
98	0xbe28ca5f	-0.16483448
99	0xbf2435ca	-0.64144576
100	0xbe5642ce	-0.20923921
101	0xbf30089d	-0.6876314
102	0xbeae1223	-0.33998212
103	0xbe530746	-0.20608243
104	0xbf226dad	-0.634486
105	0xbf15730c	-0.5837867
106	0xbe9ab73a	-0.30217916
107	0xbe8e18cf	-0.27753302
108	0xbea79d71	-0.32737306
109	0xbef49f7c	-0.47777927
110	0xbf14ca8b	-0.58121556
111	0xbcd0b294	-0.025475778
112	0xbf05eb61	-0.52312285
113	0xbf001b19	-0.5004135
114	0xbe79b1e0	-0.2438426
115	0x411a4984	9.642948
116	0xbf2670b5	-0.6501573
117	0xbf1f58e8	-0.62245035
118	0x3e46ffea	0.19433561
119	0xbf475d6a	-0.77876914
120	0xbf379998	-0.7171874
121	0xbf1c38a4	-0.61023927
122	0xbe558924	-0.20853096
123	0xbdfa21f0	-0.12213504
124	0xbf13b273	-0.57694167
125	0xbf073f45	-0.52830917
126	0xbf0e4322	-0.55571187
127	0xbf15efcf	-0.58569044
128	0xbe275220	-0.16339922
129	0xbeccef2c	-0.40026224
130	0xbe151900	-0.14560318
131	0xbf1e90fb	-0.6193997
132	0xc0465c46	-3.099382
133	0xbed2fb63	-0.41207418
134	0xbf1b13d3	-0.60577124
135	0xbfb55878	-1.4167624
136	0xbe7fd8c7	-0.24985038
137	0xbeb8f724	-0.36126053
138	0xbeefe8b9	-0.4685724
139	0xbc6c8b60	-0.014437526
140	0xbecd6f9b	-0.4012421
141	0xbd8adf7c	-0.067809075
142	0xbfeaaa93	-1.8333305
143	0xbf2e75e6	-0.6814865
144	0xbf1e0146	-0.61720693
145	0xbeae27ff	-0.3401489
146	0xbf136a74	-0.5758431
147	0xbec603cb	-0.3867477
148	0xbebbc08a	-0.36670333
149	0xbf16e693	-0.5894558
150	0xbf13d7e2	-0.57751286
151	0xbf0a12bf	-0.53934854
152	0x40202a54	2.5025835
153	0x3c3a23b8	0.011361055
154	0xbe8390b6	-0.25696343
155	0xbefe5468	-0.49673772
156	0xbf4b5268	-0.79422617
157	0xbeefe298	-0.46852565
158	0xbf1d488d	-0.6143883
159	0xbf0e2e31	-0.5553923
160	0xbf3cb6c5	-0.73716384
161	0xbf289a2e	-0.6586026
162	0xbf27808f	-0.6543054
163	0xbf0fdce1	-0.5619641
164	0xbf2123d8	-0.6294532
165	0xbc32c878	-0.010912053
166	0xbf9c6cd6	-1.2220714
167	0xbed1c800	-0.409729
168	0xbede96a6	-0.4347431
169	0xbefc3af9	-0.49263743
170	0xbf15254b	-0.5826003
171	0xbea94399	-0.33059385
172	0xbf6ab892	-0.9168788
173	0xbe5f3000	-0.21795654
174	0xbf0b9e8d	-0.54538804
175	0xbf20ca45	-0.6280864
176	0xbf21255a	-0.6294762
177	0xbf1ff431	-0.6248198
178	0xbe779724	-0.2417875
179	0xbf0bc5fe	-0.5459899
180	0x3af1c2f7	0.0018444945
181	0xbf0ddbb6	-0.5541338
182	0xbecfd74d	-0.4059395
183	0xbec44b02	-0.38338476
184	0xbf00b770	-0.50279903
185	0xbf1704ab	-0.589915
186	0xbf179447	-0.5921063
187	0x3f9e7ac1	1.2381212
188	0xbcfe67f4	-0.031055428
189	0xbee57e52	-0.44822937
190	0xbe741410	-0.23835778
191	0xbf8e0586	-1.1095436
192	0xbf0c3ed0	-0.54783344
193	0xbf1a5f63	-0.603018
194	0xbfab606f	-1.3388804
195	0xbecec4bb	-0.40384468
196	0xbeffd6fb	-0.49968705
197	0xbec564ba	-0.3855341
198	0xc0fcdeea	-7.902211
199	0xbf221e59	-0.63327557
200	0xbf090992	-0.5353023
201	0xbf686aea	-0.9078814
202	0xbef9dc80	-0.4880104
203	0xbf1caa8b	-0.6119773
204	0xbe6e4c84	-0.23271376
205	0xbf17f61a	-0.59359896
206	0xbf239d8e	-0.63912284
207	0xc085f841	-4.1865544
208	0xbec10d94	-0.37705672
209	0xbf8c4054	-1.0957131
210	0xbf1594bb	-0.5843007
211	0xbf2932c7	-0.66093105
212	0xbe95a307	-0.29225942
213	0xbf6098cc	-0.8773315
214	0xbedd036a	-0.43166667
215	0xbe60dca5	-0.21959169
216	0xbf09cd86	-0.5382923
217	0xbf0c7d5c	-0.54878783
218	0xbec10364	-0.376979
219	0xbcd1f2f0	-0.025628537
220	0xc0c8ad14	-6.2711277
221	0xbf81c73e	-1.0138929
222	0xbf0ea4e7	-0.5572037
223	0xbf0e14e5	-0.5550063
224	0xc0b39018	-5.6113396
225	0xbf28a1df	-0.65871996
226	0xbf8559aa	-1.0417988
227	0xbeffd77f	-0.49969098
228	0xbf1ed75c	-0.6204736
229	0xbf09c2c7	-0.5381283
230	0xbf268336	-0.6504396
231	0xbf263905	-0.64930755
232	0xbf1b7e6e	-0.6073979
233	0xbf207f90	-0.62694645
234	0xc0b5b018	-5.677746
235	0xbf954b1e	-1.1663549
236	0xbecc0f08	-0.39855218
237	0xbf14d42f	-0.58136266
238	0xbf96f0aa	-1.1792195
239	0xbe721db1	-0.23644139
240	0xbf10118a	-0.5627676
241	0xbc32b225	-0.010906731
242	0xbf28092b	-0.6563899
243	0xbf10ca31	-0.5655852
244	0x3efc8b13	0.49324855
245	0xbf488136	-0.7832216
246	0xbf158926	-0.58412397
247	0xbe7282f2	-0.23682764
248	0xbec417c3	-0.3829938
249	0xbf20d7c8	-0.62829256
250	0xbf028594	-0.50985074
251	0xbeda32ab	-0.42616782
252	0xbd939056	-0.07205264
253	0xbf1e15b5	-0.6175187
254	0x40445029	3.0673926
255	0xbf203f0e	-0.62596214

linear3.weight f4 [2, 256]
0	0x3f10e1e4	0.5659468
1	0x40c33e39	6.1013455
2	0xbe976707	-0.2957079
3	0xbd399fd2	-0.045318432
4	0x3fa15c3a	1.260627
5	0xc037d925	-2.8726285
6	0x3f3e2d19	0.74287564
7	0xbf9fed2d	-1.2494255
8	0xbf017104	-0.50563073
9	0xbe8c6e0c	-0.2742771
10	0xbd65c776	-0.056098424
11	0x3f0d4cd7	0.55195373
12	0x3f0efb96	0.5585264
13	0x3f14a489	0.5806356
14	0xbea99431	-0.33120874
15	0xbc3d1020	-0.011539489
16	0x3f177dd7	0.5917639
17	0xbe946ceb	-0.28989348
18	0xbe969a5e	-0.29414648
19	0x3c3be4c8	0.01146812
20	0xbd1d7090	-0.038437426
21	0x3f93716f	1.1518992
22	0xbb5e64e0	-0.0033934638
23	0x3f0d6ba2	0.5524236
24	0x3f1ae625	0.6050742
25	0xbc0d313f	-0.008617698
26	0xbeac9001	-0.33703616
27	0x3f0ca59a	0.5494019
28	0xbe930199	-0.28712156
29	0x3f150ef1	0.58225924
30	0x3d32d4d0	0.043659985
31	0xbe779e5f	-0.24181508
32	0xbe9a45c6	-0.30131358
33	0xbeb003e5	-0.3437797
34	0x3f2033ea	0.62579215
35	0xbe7f148f	-0.24910186
36	0x3d59b0f3	0.053147268
37	0x3a009580	0.000490509
38	0xbefe01c5	-0.49610725
39	0xbeaa3091	-0.33240178
40	0x3f15ea59	0.5856071
41	0xbe8fb47b	-0.28067383
42	0x3f15cf35	0.585193
43	0x3f2d8749	0.67784554
44	0x3f2159b8	0.63027525
45	0xbeaabf81	-0.3334923
46	0xbb9d04d0	-0.0047918335
47	0xbfc46699	-1.534381
48	0x3f0f0033	0.5585968
49	0xbe947dae	-0.29002136
50	0xbe9c3905	-0.30512252
51	0x3f0e7f79	0.5566326
52	0xbd27711a	-0.040879346
53	0xbe993c3b	-0.29928765
54	0x3f0ab1d9	0.54177624
55	0xbd27c4c2	-0.040959127
56	0x3c761850	0.015020445
57	0x3ef91a57	0.48652908
58	0x3f3cb063	0.73706645
59	0xbe8da7fa	-0.27667218
60	0xbe8aa347	-0.27077696
61	0x3f0adedf	0.54246324
62	0x403662d6	2.8497825
63	0x3f11419a	0.56740725
64	0xbc2c8100	-0.010528803
65	0xbef72969	-0.4827378
66	0x40022f37	2.0341318
67	0x3bad78db	0.005293948
68	0xc0139d1b	-2.306464
69	0xbdc48bb8	-0.09596962
70	0x3f17332f	0.59062475
71	0xbf3bd4d9	-0.73371655
72	0xbea5d462	-0.32388598
73	0xbe96a6eb	-0.29424223
74	0x3f800d87	1.0004128
75	0xbe995129	-0.29944733
76	0xbf043db5	-0.5165666
77	0x3f1c118d	0.6096428
78	0x3efd7ffa	0.495117
79	0xc02014bc	-2.5012655
80	0x3f1f4dfe	0.6222838
81	0x3f17c387	0.59282726
82	0x3f19d398	0.6008849
83	0xbeb5a7cd	-0.35479584
84	0x3f0a8f73	0.54125136
85	0xbefa322e	-0.4886641
86	0x3f185159	0.59499127
87	0xbe9fe027	-0.31225702
88	0x3f13c956	0.5772909
89	0x3f16659e	0.58748806
90	0x3f20e1ea	0.6284472
91	0x3f17a95c	0.59242797
92	0xbb508d20	-0.0031822398
93	0xbf531a76	-0.8246225
94	0x3f0d6cb8	0.55244017
95	0xbe86d6f5	-0.26335874
96	0xbe86daa6	-0.2633869
97	0xbebd2cc8	-0.36948228
98	0x3fbd1fc1	1.4775316
99	0x3f1ac8e8	0.6046281
100	0xbeb0e83d	-0.34552184
101	0xbef3b956	-0.47602338
102	0xbe8294ec	-0.25504243
103	0xbe8ad7ba	-0.2711771
104	0x3df1c75b	0.11805602
105	0xbf09e02a	-0.5385767
106	0x3fb16df5	1.3861681
107	0xbeb4eb79	-0.353359
108	0xbe866ef4	-0.26256526
109	0xbeb28126	-0.34864157
110	0x3f0b1ead	0.5434368
111	0xbbc23db0	-0.005927764
112	0xbeb28d6a	-0.34873515
113	0xbe2709d5	-0.16312344
114	0xbea89573	-0.3292652
115	0x3fc11187	1.5083474
116	0x3f1eaf17	0.61985916
117	0x3f10fdf2	0.5663749
118	0xbe8ecb5a	-0.2788952
119	0xb7d40000	-2.527237e-05
120	0xbef7701e	-0.48327726
121	0x3f1502af	0.5820722
122	0xbdc26db7	-0.09493583
123	0xbd0a905c	-0.033829078
124	0xbd3d2ad0	-0.046183407
125	0x3c293248	0.010326929
126	0x3f14574d	0.5794571
127	0x3f135e7a	0.57566035
128	0xbd805798	-0.06266707
129	0xbe8cdb3d	-0.27511016
130	0xbe8e95b6	-0.27848595
131	0x3f0bbcd4	0.54585004
132	0x40494bc7	3.14525
133	0xbe9f21e5	-0.31080547
134	0x3f155859	0.5833793
135	0x3f0f8f39	0.56077915
136	0xbea68860	-0.3252592
137	0xbe94b7b2	-0.29046398
138	0x3eecd163	0.462535
139	0xbd196b94	-0.03745611
140	0xbebf83aa	-0.3740514
141	0xbe9282ff	-0.28615567
142	0xbefc33a4	-0.4925815
143	0x3f29178e	0.66051567
144	0xbc976c78	-0.01848434
145	0xbe92a740	-0.28643227
146	0xbece3f23	-0.40282544
147	0xbec15c72	-0.37765843
148	0xbe8680b1	-0.2627006
149	0x3f1b75a4	0.6072638
150	0x3f2816d8	0.65659857
151	0x3f0c3cb4	0.54780126
152	0x403bbf21	2.9335406
153	0x3cfa0058	0.030517742
154	0xbbdadd1d	-0.006679191
155	0xbf0286f9	-0.509872
156	0xbf407ea5	-0.75193244
157	0xbea7580c	-0.32684362
158	0xbd47cf20	-0.048781514
159	0x3f1ff3d0	0.62481403
160	0xbf2594e3	-0.6468031
161	0x3f118a02	0.5685121
162	0x3f0d15fb	0.55111665
163	0x3f0f9f35	0.56102306
164	0xbc478338	-0.012177281
165	0x3d625bc4	0.055263296
166	0x3f232b1b	0.6373765
167	0xbea126cf	-0.3147492
168	0xbe886ad8	-0.26644015
169	0xbec464ee	-0.38358253
170	0xbf1cb526	-0.6121391
171	0xbe866fb3	-0.26257095
172	0xbeb63df4	-0.3559414
173	0xbea94177	-0.33057758
174	0x3f15cb97	0.5851378
175	0x3f0dda89	0.55411583
176	0x3f0b2d23	0.5436575
177	0x3f10a469	0.5650087
178	0xbeac240b	-0.3362125
179	0x3f1155bb	0.5677144
180	0xbe9457d2	-0.28973252
181	0x3f0e56dd	0.5560129
182	0xbe89ac06	-0.26889056
183	0xbe977de5	-0.29588237
184	0xbefd6993	-0.4949461
185	0x3f0ea3f0	0.557189
186	0x3f24b093	0.6433193
187	0x3fe316db	1.774135
188	0x3a70ca00	0.0009185374
189	0xbeaa36ed	-0.3324503
190	0xbea55352	-0.3229013
191	0xbe9248e0	-0.28571224
192	0x3d091952	0.033471413
193	0x3d5b3a30	0.05352229
194	0x3e26ed08	0.16301358
195	0xbe9484ae	-0.29007477
196	0xbec64de4	-0.387313
197	0xbeaad64c	-0.3336662
198	0x3f70489b	0.9386079
199	0x3f1b91af	0.6076917
200	0xbe964955	-0.29352823
201	0x3f5832d1	0.8445254
202	0xbec34e26	-0.3814556
203	0x3b68c9a0	0.0035520568
204	0xbbe8dc41	-0.0071063344
205	0x3c244d00	0.010028124
206	0x3f191dc7	0.5981106
207	0xbfb4a3a0	-1.4112434
208	0xbe846d08	-0.25864434
209	0x3f0c5762	0.54820836
210	0x3cf3e634	0.029772855
211	0x3f15cd75	0.5851663
212	0xbe9bace1	-0.30405334
213	0xbcab9d48	-0.020949021
214	0xbec3039c	-0.3808869
215	0xbd0496ff	-0.032370564
216	0x3f123bad	0.5712231
217	0xbd1e57f0	-0.038658082
218	0xbeda4b69	-0.42635658
219	0xbb79e860	-0.003813289
220	0xc0305732	-2.755322
221	0xc01a5615	-2.411504
222	0xbd467c20	-0.04845822
223	0x3f15a1d5	0.5845006
224	0xc0911d1f	-4.534805
225	0x3d235670	0.039877355
226	0xbf67417c	-0.90334296
227	0xbeab0e28	-0.33409238
228	0x3c005880	0.0078336
229	0x3f09c336	0.53813493
230	0x3f1a5c04	0.60296655
231	0x3f09c572	0.538169
232	0xbf011409	-0.50421196
233	0x3f0d1f43	0.55125827
234	0x3f0bb6a8	0.54575586
235	0x3f0e1dfd	0.5551451
236	0xbd2f4c08	-0.04279712
237	0x3f0d9344	0.55302835
238	0xbfd3d4a5	-1.6549269
239	0xbea6a65d	-0.325488
240	0xbf0ae0d9	-0.5424934
241	0x3dd229dc	0.1026189
242	0x3f2094f9	0.62727314
243	0x3f20b830	0.6278105
244	0xbe22a12c	-0.15881795
245	0xbf352a0e	-0.70767295
246	0xbd732f9a	-0.05937157
247	0xbe024033	-0.12719803
248	0xbe89f3b9	-0.26943758
249	0x3f1718ce	0.59022224
250	0xbeaff8c7	-0.3436949
251	0xbe99fe75	-0.30076948
252	0xbe926482	-0.28592306
253	0x3f1541f9	0.5830379
254	0x400e4121	2.2227252
255	0x3f10569d	0.5638216

linear3.bias f4 [2]
0	0x40f4751c	7.6392956
1	0xc0f3e591	-7.6217732
